models/autoencoder.pth (torch, 846471 bytes, 11 tensors)

encoder.0.weight f4 [16, 1, 3, 3]
000000 49 d8 8e 3e 05 50 8e 3e 82 f4 1e 3e 21 c3 76 3e
       0.27899387 0.27795425 0.1552296 0.24097873
000010 c2 89 c7 3d f0 ed 6f be 65 14 9f 3d 59 22 24 3e
       0.09743072 -0.2343061 0.07767562 0.16028728
000020 6f 52 5e bd 4f 84 44 3c 2b 00 05 3e 99 ee dd 3d
       -0.054277834 0.011994435 0.12988345 0.108365245
000030 8b 83 a9 be f5 97 a6 3e 5f 34 9e 3e 94 d0 3e be
       -0.33108172 0.3253781 0.3089933 -0.18634254
000040 40 25 9a 3e 4f fc a1 bd 6f a6 a7 3d 55 48 66 3e
       0.30106544 -0.07909452 0.081860416 0.2248853
000050 11 40 5e be 1d ea 91 3e 21 68 a7 3d 5b 04 15 be
       -0.21704127 0.28498927 0.08174158 -0.14552443
000060 7a 4c f0 3c 8a f9 4b 3e 55 0d 8a bd 80 d9 03 3e
       0.029333342 0.1991941 -0.06740824 0.12875938
000070 8a ac 3b be 00 b6 73 3e 7a 0c 4f 3e 79 5d 83 bd
       -0.18327537 0.23799896 0.20219603 -0.06414313
000080 df ff 9a 3d 83 59 44 be 32 d7 7d be f7 77 ac 3e
       0.07568335 -0.19174771 -0.24789122 0.33685276
000090 20 28 97 3e 7a b9 c9 bd c3 c7 39 bc 81 de 2c be
       0.295228 -0.0984983 -0.011339131 -0.16881754
0000a0 da 74 da bd 83 c5 80 3d aa 1f 8e be e3 68 48 3e
       -0.10666819 0.06287672 -0.27758533 0.19571261
0000b0 f9 49 45 bd b3 15 08 3d aa bc a6 bd 2a 8d b8 3d
       -0.04816625 0.03322382 -0.081414536 0.090113
0000c0 1c cd c0 bd 5d 10 dc bd c2 44 7b 3e 5a a0 86 3b
       -0.094141215 -0.107453085 0.24537948 0.004108471
0000d0 e0 b6 a6 3d e9 db a6 bd 61 e6 99 3e d4 c5 38 3e
       0.081403494 -0.08147413 0.30058578 0.18044215
0000e0 aa 8c 8b 3e 01 2a 84 bc 48 d8 3e 3c 23 8c c8 bd
       0.27255756 -0.01613331 0.011648245 -0.09792354
0000f0 03 d1 16 be 8c 77 a9 be 57 0a e5 bd b9 10 1f 3e
       -0.14728169 -0.3309902 -0.11183613 0.15533723
000100 4d 57 47 3e dd 30 13 bc 24 4d 8f be ef cb a8 3c
       0.19466896 -0.008983818 -0.2798854 0.020605056
000110 b5 da b7 3d 2d 79 7d 3e 56 99 19 3e 68 27 c4 bd
       0.08977262 0.24753256 0.149999 -0.09577829
000120 46 73 5d 3e 44 f1 77 3e 95 9f 9b be 15 d9 56 3e
       0.21626005 0.2421313 -0.3039519 0.20981248
000130 95 b7 89 be 71 83 87 3e c9 3f 61 3e 5f 6e 22 be
       -0.26897874 0.2646747 0.21996988 -0.15862416
000140 82 b5 4a be 5f 9f f7 3b ad fe 93 3e 33 12 9b 3e
       -0.19795802 0.0075568403 0.2890524 0.30287322
000150 0e 5a 40 bd 72 0b f8 bc 28 d4 72 bd a3 a6 f1 3b
       -0.046960883 -0.030278895 -0.05928436 0.007374601
000160 44 f7 15 be 55 b3 00 3e 4e 17 b3 3e 68 b2 b4 3e
       -0.14645106 0.1256841 0.34978718 0.35292363
000170 3c 63 1f be ba cc 19 3e b5 60 06 3d c7 2f b5 3e
       -0.15565199 0.15019503 0.03280707 0.35388014
000180 e9 6a 57 be 3e 6c 66 be 3d a6 d5 3c bd da a7 3e
       -0.21036877 -0.22502229 0.026080245 0.32784072
000190 31 6b 2e be 5c b6 5f be e8 86 58 be f3 32 80 be
       -0.17033078 -0.21846908 -0.21145213 -0.2503887
0001a0 1d 83 45 3d de da af 3d ac fe 4f 3e 11 0a 2f be
       0.048220742 0.085866675 0.20311993 -0.17093684
0001b0 26 70 4e bc 0f 16 3e bc 8c 4f a1 ac 97 2d 8f a9
       -0.01259998 -0.011601939 -4.5847267e-12 -6.358384e-14
0001c0 3e 9d 3e b1 7e d3 9f b8 fb 52 92 29 79 b6 54 bb
       -2.773802e-09 -7.621104e-05 6.498097e-14 -0.0032457395
0001d0 f8 40 51 2d a2 75 91 a8 80 1f c7 bc 24 9a 95 ba
       1.18947005e-11 -1.6149249e-14 -0.024307013 -0.0011413735
0001e0 06 1e 2f bc 32 99 31 29 2a b5 1e 3a 29 ab e1 ba
       -0.0106883105 3.943477e-14 0.0006054217 -0.0017217147
0001f0 3e af e4 2d 4c ca ee 25 6b 84 c5 bd 8e 34 e4 bc
       2.5998422e-11 4.14235e-16 -0.09644397 -0.027857091
000200 5f 72 3e 3c ef d1 12 be 7a 48 07 bd 94 b0 57 bd
       0.011623948 -0.14337896 -0.033028103 -0.052658632
000210 14 c8 0c bc 5f 9b 15 be 90 08 b5 3e ae f3 a1 3e
       -0.008592624 -0.1461005 0.35358095 0.31631225
000220 b6 01 79 be a7 78 d3 3d 4f e6 ec 3d 74 a4 98 bd
       -0.24317059 0.10325747 0.115673654 -0.07453242
000230 4d a7 58 bd 33 54 c1 3d 90 40 c5 bd 56 8b 75 be
       -0.052893925 0.09439888 -0.09631455 -0.23978934

encoder.0.bias f4 [16]
000000 99 38 b8 3d 80 2b 57 3e 99 45 87 be 08 ba 3a be
       0.0899517 0.21012688 -0.26420286 -0.18235028
000010 8c ea 0b 3e 77 16 dd 3c 0a fe 3d 3e 3f 5c 5f 3e
       0.13663691 0.026988251 0.1855394 0.21812533
000020 3b b1 89 3e 9d d6 32 3c d0 e1 3a 3d 31 50 a6 3e
       0.2689303 0.010915426 0.045625508 0.32483056
000030 67 b2 f3 bb b7 1e 45 bb 13 4e 02 3e 74 7c aa 3d
       -0.0074370387 -0.0030078122 0.12725095 0.08324519

encoder.2.weight f4 [32, 16, 3, 3]
000000 f7 24 b9 bb 54 e9 6f bb a6 9c 92 bb e3 82 8b bb
       -0.0056501585 -0.003660758 -0.0044742404 -0.0042575463
000010 7b 1f b6 bb 9d 60 36 bc 0d 60 aa bb af 5d 82 bb
       -0.005557952 -0.011131433 -0.0051994384 -0.003978453
000020 95 e5 94 bb 2d a8 7d bb b5 41 6e bb 9d 7f 9a bb
       -0.00454397 -0.0038704977 -0.0036355082 -0.0047149197
000030 13 f9 ce 3a 25 1a 25 bb 2e 81 86 bb 4d 1d 7f bb
       0.0015790783 -0.0025192585 -0.004104755 -0.0038927377
000040 0d b3 4e bb 6b f2 ae ba 2d 75 0e ad 3e 70 d6 ac
       -0.0031539828 -0.0013347393 -8.097784e-12 -6.094707e-12
000050 34 ba fc ab da 63 70 ab 5b 88 8e 2b e0 c2 2a ad
       -1.7957359e-12 -8.54037e-13 1.0127553e-12 -9.706652e-12
000060 1e 3e b7 aa a8 08 20 a9 0f c7 ab 2d 26 50 a1 2a
       -3.2550433e-13 -3.5534645e-14 1.9528849e-11 2.865496e-13
000070 fd 87 54 2a b2 7b 53 aa 19 30 0b aa 75 04 e3 aa
       1.8876563e-13 -1.878348e-13 -1.2362367e-13 -4.0326393e-13
000080 69 2b 97 2a 3e 1b 10 aa ca ea 7f 2a 2a ed 4c aa
       2.685311e-13 -1.2799221e-13 2.2730009e-13 -1.8201123e-13
000090 d2 ac cd 29 37 e0 0e 2c d7 94 63 2a 22 58 9c aa
       9.1338083e-14 2.0303878e-12 2.0213289e-13 -2.777232e-13
0000a0 7f 81 8b 2a ef 13 1a aa 82 d8 93 ab f1 9a ae 2a
       2.4781216e-13 -1.3684864e-13 -1.0505071e-12 3.101612e-13
0000b0 45 61 a7 2a ea 99 04 28 bd c8 22 a7 8d ca 31 28
       2.9732654e-13 7.360847e-15 -2.2590837e-15 9.869395e-15
0000c0 8d 87 97 a9 65 8e 37 2b 69 65 49 a7 a0 84 03 27
       -6.7292614e-14 6.521227e-13 -2.7949328e-15 1.8251798e-15
0000d0 06 2e 22 ab 8a 3a 17 a9 15 41 53 bc ac cf b6 39
       -5.761783e-13 -3.357951e-14 -0.012893935 0.00034868473
0000e0 00 09 fa bb 7e 95 8e 3a 49 92 71 bb 60 33 5f bb
       -0.0076304674 0.0010878292 -0.0036860874 -0.0034057721
0000f0 29 ab 68 bb 94 0b 6a bb b9 65 3b 3b d5 34 1b 3c
       -0.003550241 -0.0035712468 0.0028594567 0.009473045
000100 21 90 5c bb 2c be 88 bb 07 61 f6 bb 88 ae 9d bb
       -0.0033655243 -0.004173061 -0.007518891 -0.0048120655
000110 6f 52 63 bb 30 ff b6 bc 55 99 77 bb 6e 97 22 bc
       -0.0034686585 -0.02233848 -0.0037780602 -0.009923799
000120 8a 9a a2 bc ab 67 8d bc 87 a2 81 bb 05 62 1a bc
       -0.01984908 -0.017261347 -0.0039561423 -0.009422784
000130 61 54 5c bb 06 bb f0 bb 3d 29 34 bc a4 12 80 bb
       -0.003361963 -0.0073465137 -0.01099616 -0.003908472
000140 10 77 b3 bc 11 b1 81 bb 03 e5 ba 3a 2c a8 7e bb
       -0.02190736 -0.0039578755 0.0014258925 -0.0038857562
000150 26 e3 be 3b 3c aa 5f bb fa c9 84 bb 65 b5 bd 3a
       0.005825418 -0.0034128567 -0.004052398 0.0014473615
000160 6c b0 8a bb 77 c3 fd ba fd ad c4 bb e5 36 ce bb
       -0.004232457 -0.0019360621 -0.0060021863 -0.006293165
000170 fd d4 5e bb 96 fe 97 bb 80 1b 7b 38 21 03 96 bb
       -0.0034001463 -0.0046385033 5.9868675e-05 -0.0045780097
000180 f8 68 7f bb 8b b7 8d bb f5 fc 84 bb e6 53 96 ba
       -0.0038972478 -0.0043248585 -0.004058475 -0.0011469095
000190 e7 a1 01 bb 63 82 12 bb a4 48 c2 ba 3d ce 68 3b
       -0.001978034 -0.0022355549 -0.0014822674 0.0035523318
0001a0 1c cf 56 3a 41 34 bc 3b fd 7f dd ba 19 a0 08 bb
       0.0008194314 0.005743534 -0.0016899105 -0.0020847379
0001b0 99 44 ea 27 d2 dd 7f 28 72 9e 82 29 ed 35 8c 28
       6.502242e-15 1.4203443e-14 5.8006456e-14 1.5566509e-14
0001c0 da 76 b9 a7 87 bb ac a9 e2 1d 8a a3 00 c7 94 2a
       -5.1476674e-15 -7.670865e-14 -1.4974646e-17 2.6428165e-13
0001d0 42 af 8b 2b 1c 0b 51 28 2d 5d 54 28 cc f5 04 a6
       9.925188e-13 1.16042396e-14 1.1788568e-14 -4.6129817e-16
0001e0 7c 48 89 2a 8c 18 e0 28 3f 8b 99 a3 e0 f7 d4 2a
       2.4386385e-13 2.4879641e-14 -1.6647266e-17 3.7830763e-13
0001f0 8d be 74 a9 c3 71 8c a9 34 d4 81 b4 e5 0e b0 b6
       -5.434416e-14 -6.2369835e-14 -2.418252e-07 -5.2469427e-06
000200 73 1e b7 b4 42 86 af b4 40 bf 4d b6 11 01 9c b4
       -3.410856e-07 -3.2693976e-07 -3.0658703e-06 -2.905804e-07
000210 fa da 23 b4 3d 03 29 b6 4c 85 5f b4 1c c0 b2 39
       -1.5260221e-07 -2.5184847e-06 -2.0816987e-07 0.00034093938
000220 cd 9f 48 ba c5 d3 93 bb 50 78 38 ba 90 a6 0b bb
       -0.00076532067 -0.004511329 -0.0007036971 -0.0021308996
000230 2a 89 8e ba 8c df 2f ba ff f0 32 ba 5e 07 96 ba
       -0.0010874618 -0.00067090313 -0.00068260723 -0.0011446287
000240 78 f7 76 3d 47 5f c9 3d 6b 22 31 bd ae df 3e bd
       0.0602946 0.09832626 -0.043245714 -0.046600036
000250 05 a8 fa 3d 0a 6a 6c bc cd 38 f3 3c e3 ef 04 bd
       0.122390784 -0.014429579 0.02969017 -0.032455336
000260 25 02 e9 3b 99 7f a5 3d e7 62 52 bd 15 7a 80 bc
       0.0071108514 0.08080978 -0.051363852 -0.015683213
000270 8a ed c5 3c 57 68 0c 3d 27 72 9f 3d ee 9d e2 3c
       0.024161119 0.034279194 0.07785445 0.027663197
000280 81 ab 44 bc f5 cb 91 bb 09 f3 a1 bd 18 0f 27 3e
       -0.01200378 -0.0044493624 -0.079076834 0.16314352
000290 94 05 1d 3c 18 ec a0 bd ba 19 2f 3e 86 d8 05 3c
       0.009583849 -0.07857531 0.17099658 0.008169299
0002a0 4b ec 8a bd 99 3e df 3d 8d 14 34 bc 3e ed 89 3d
       -0.067833506 0.109006114 -0.010991228 0.067347035
0002b0 11 d6 02 bd cb 20 da 3d d8 8b 3b 3d f3 5c bd bc
       -0.03194243 0.10650786 0.045787662 -0.02311561
0002c0 dc 38 f6 3d 1d a2 d7 bc 12 c2 9b bd 6d c1 3e 3d
       0.12022564 -0.026322419 -0.07605375 0.046571184
0002d0 cc 29 b0 3c 77 d3 44 be 9a 7a 4c bd fb 05 e3 3d
       0.021504305 -0.19221292 -0.04992161 0.11085125
0002e0 73 38 97 3d 7c 1c 16 3e 72 a2 3b 3d 64 03 c6 3d
       0.07383814 0.14659303 0.045809217 0.096686155
0002f0 ba fb a6 3d 0a 5d 2b 3e e9 20 a0 bd 25 0c 01 3e
       0.08153482 0.1673471 -0.07818777 0.12602289
000300 83 77 3c 3e 86 30 cf bd 51 26 22 3e 06 e0 20 3d
       0.18404965 -0.10116677 0.15834929 0.039276145
000310 f7 3d 08 be 4d 01 e2 3d 49 21 bb 3c bc 19 2d bd
       -0.13304888 0.11035404 0.02284302 -0.04226087
000320 03 65 53 bd d4 46 03 3d 2a c7 17 3d 36 62 db 3d
       -0.051610004 0.03204997 0.037055172 0.107120916
000330 50 85 0e 3d 00 d2 df 3c ae e2 82 3d 4f d2 77 3d
       0.034795105 0.027321815 0.06390892 0.0605033
000340 8b 52 e3 3c 5a 13 ae 3d 4b d2 69 bd 22 85 8d 3d
       0.02774932 0.08499785 -0.057085317 0.06910159
000350 1e e7 0e bd 69 f9 a4 3c 98 f7 3d 3c 63 b6 a4 bd
       -0.03488838 0.02013846 0.0115946755 -0.080426
000360 13 bd 9e bd 3c 0a 73 3d 78 89 0c 3d 7e e0 25 3d
       -0.07750907 0.059335932 0.034310788 0.040497296
000370 f8 3c d6 bb dc 44 0c 3d 9d 64 85 3b d7 21 1c 3d
       -0.0065380298 0.034245357 0.004070832 0.03811821
000380 49 41 43 bc a0 a6 66 3d f2 be 05 bd 68 ec 93 3d
       -0.011917421 0.05631125 -0.032652803 0.07222825
000390 4f 83 2b 3d a8 3b 31 3d 98 bc 30 bd 74 6a 63 bc
       0.041873273 0.043269783 -0.043148607 -0.013880361
0003a0 7e b9 5d bd b1 da 9c 3d dd 9c 31 3d 39 34 7a 3d
       -0.054131977 0.076588996 0.043362487 0.06108496
0003b0 2e b7 96 3d 93 f4 80 3c 68 b4 cf 3d 66 7f a1 bc
       0.073591575 0.015741622 0.10141832 -0.019714069
0003c0 36 69 d9 bc 46 eb 42 3d b9 97 50 bd 0e 23 01 be
       -0.026539426 0.047587655 -0.050925944 -0.12611029
0003d0 f6 9c 48 bc 9d b6 c1 bd 53 94 ad bd 62 f8 30 bc
       -0.012244454 -0.09458659 -0.08475556 -0.010801407
0003e0 9d 01 a3 bc f4 4d 8a bd 4b b3 04 bc ce 62 0d 3d
       -0.01989823 -0.0675315 -0.008099387 0.034518056
0003f0 74 dc 94 a6 cb f1 57 29 fc 43 cb 28 a4 99 04 28
       -1.0329317e-15 4.7949312e-14 2.2567011e-14 7.3607875e-15

encoder.2.bias f4 [32]
000000 38 be 3a bb 8a 0c 38 bc 1d a5 a1 3d 56 60 69 3d
       -0.0028494727 -0.011233458 0.07892821 0.05697664
000010 ef ec a7 3c 4f 7b d6 bc 47 d3 bd 3d f4 f4 6e 3d
       0.02049872 -0.026181845 0.092688136 0.058339074
000020 0f e9 ad 3d a3 38 4c 3d 16 45 44 bd b5 b4 92 3d
       0.08491718 0.0498587 -0.047917448 0.071633734
000030 d7 67 1a bd 0b a4 f5 bb 39 0b 66 ba c3 6e 84 3d
       -0.037696686 -0.007496362 -0.0008775476 0.064664386
000040 33 a4 32 3c 28 44 c5 bb 0b 14 40 3d 43 98 6a ba
       0.010903406 -0.0060200877 0.046894114 -0.00089490804
000050 68 af 35 bd d9 2c 0d 39 6e 61 b4 bd 61 b5 c2 3c
       -0.044356734 0.00013463515 -0.08807646 0.023768129
000060 74 cc 4d 3b 90 ae e9 bb 3c db d1 bc cb f4 a4 bc
       0.003140238 -0.007131405 -0.025617234 -0.020136258
000070 5c 1b 4a 3b 14 45 7a 3c 96 e6 bc bd 51 a1 a0 3d
       0.0030839061 0.015275259 -0.09223668 0.07843269

encoder.4.weight f4 [64, 32, 7, 7]
000000 f4 a0 00 b6 b0 06 c5 b5 e8 57 d9 b5 4e 5a 08 b6
       -1.9167173e-06 -1.467959e-06 -1.6193344e-06 -2.0318143e-06
000010 fb 3f 22 b6 79 4c 04 b6 7b eb e2 b5 99 b4 47 b6
       -2.4177123e-06 -1.9714046e-06 -1.6906846e-06 -2.9758432e-06
000020 c5 1b 1f b6 fe 2b ff b5 eb fe 2c b6 e5 bb 42 b6
       -2.370901e-06 -1.9011784e-06 -2.577838e-06 -2.9017622e-06
000030 a4 a2 36 b6 7e 76 02 b6 e2 6b 46 b6 76 6a 14 b6
       -2.7214783e-06 -1.944048e-06 -2.9567095e-06 -2.2115687e-06
000040 8e 90 fa b5 c0 a6 18 b6 ea 4a 41 b6 9a 1b 45 b6
       -1.8668522e-06 -2.2746826e-06 -2.8802847e-06 -2.9371354e-06
000050 4a da 09 b6 59 d2 44 b6 be ad 1b b6 5d 80 f3 b5
       -2.0541652e-06 -2.9328714e-06 -2.319793e-06 -1.814227e-06
000060 4d f9 12 b6 cf ef 3f b6 29 e5 41 b6 c5 3c 0f b6
       -2.1900807e-06 -2.8600805e-06 -2.889263e-06 -2.1344033e-06
000070 b6 e6 4e b6 69 4f 27 b6 ec e4 0b b6 80 df 20 b6
       -3.0830683e-06 -2.4931162e-06 -2.0845864e-06 -2.3971952e-06
000080 98 ee 39 b6 8d ad 40 b6 3e df 20 b6 2c 96 48 b6
       -2.7706028e-06 -2.871125e-06 -2.3971802e-06 -2.9889734e-06
000090 ce 9e 1f b6 17 b8 11 b6 a4 ef 1b b6 bf ab 30 b6
       -2.3785283e-06 -2.1713838e-06 -2.323629e-06 -2.6326013e-06
0000a0 ea 15 46 b6 1c 59 10 b6 de d9 43 b6 04 74 29 b6
       -2.9517055e-06 -2.150954e-06 -2.918408e-06 -2.5250492e-06
0000b0 44 d6 1e b6 e1 8d 47 b6 ef 0d 38 b6 73 52 3f b6
       -2.3668554e-06 -2.9735895e-06 -2.7426247e-06 -2.850921e-06
0000c0 66 6d 1b b6 f5 f0 c5 3c 45 a1 6a 3c d7 b4 a5 3b
       -2.3160478e-06 0.024162749 0.014320676 0.005056958
0000d0 c8 f0 b0 3c 76 d5 5f 3c d0 e7 06 3d 4e ef 18 3d
       0.021599188 0.013661733 0.032935917 0.037337594
0000e0 65 99 56 ba c3 1d 98 bc 6f 1b 09 bd f0 12 0c 3b
       -0.000818631 -0.018568879 -0.03347343 0.0021373592
0000f0 a5 bd 95 3c 2e 0a 83 bc c0 43 13 3d a8 0e 53 3c
       0.018278906 -0.015996065 0.035953283 0.012881912
000100 8c ee 9b 3b 00 20 cc 3c be d5 b7 bb d9 1c b2 3c
       0.0047586616 0.024917603 -0.005610197 0.021742271
000110 b2 8b b6 3a f1 82 b4 bb 3d 9e 85 3c 14 e7 29 bc
       0.001392713 -0.0055087735 0.016310805 -0.010370035
000120 28 da be 3b 12 36 fb ba 6c 1e c7 bc 11 ca f4 3b
       0.005824346 -0.0019165894 -0.024306498 0.0074703773
000130 5f 06 34 bc 43 8b 88 bb c2 95 0f 3c e2 f5 46 3c
       -0.010987847 -0.004166992 0.008763732 0.012143584
000140 66 5a 95 3c dc d7 8c bc 53 5b c4 bc b3 ce a8 bc
       0.018231582 -0.017192774 -0.023969328 -0.020606374
000150 59 fe c4 3b 25 14 3f 3c 47 c7 32 bc 0d 2a 25 3c
       0.006011766 0.011662518 -0.010911769 0.0100808265
000160 2b 22 a9 3c 5b a0 e1 3c 7c 26 7e bb 8f 02 32 3c
       0.020646175 0.027542284 -0.0038780263 0.010864868
000170 41 b7 83 3c d8 fc 89 3c d4 2e 4c 38 60 c8 4b 3c
       0.016078593 0.016844198 4.8681002e-05 0.01243791
000180 98 96 c6 3b 50 bc 38 3c a7 33 23 bd f2 96 4e bb
       0.0060604326 0.011275366 -0.03984418 -0.0031523076
000190 4e 78 ec 3c d0 6b 1d 3c 12 21 fb bb 1b c4 76 3c
       0.02886596 0.009608224 -0.0076638544 0.015061404
0001a0 6d 0f 52 bd 21 66 9f bd d0 0b b7 3c 84 66 12 3d
       -0.051284242 -0.077831514 0.0223445 0.035742298
0001b0 f7 9d a9 bb 60 eb 1c bd ad f5 54 3c d0 39 83 bc
       -0.0051763016 -0.03831041 0.012998027 -0.016018778
0001c0 cc f0 93 bd 0d 03 16 3d b6 75 6f ba 5f d0 a1 bb
       -0.07223663 0.036624003 -0.0009134667 -0.00493817
0001d0 69 18 46 bc b2 09 8b bb a3 26 0f 3c c9 72 35 bd
       -0.012090781 -0.004243099 0.008737239 -0.04429892
0001e0 c0 83 27 3d 5a 65 53 bc 04 5a 35 ba 28 e0 3f bc
       0.04089713 -0.012902582 -0.00069180154 -0.011711158
0001f0 93 f1 4d 3b bd 1d c1 3c 16 d4 14 bd c9 e6 1a 3d
       0.0031424507 0.02357375 -0.036335073 0.03781775
000200 cb ec 94 ba 28 5d 8f 3c 28 83 f3 bc 72 90 fb 3b
       -0.0011362074 0.017500475 -0.029725626 0.0076771313
000210 25 46 1a 3d d4 d0 74 bc df 73 54 3c ac d7 b9 bc
       0.03766455 -0.014942367 0.012967079 -0.022685848
000220 da 01 83 3c 86 60 b4 ba 95 e0 90 bc 24 c1 06 3d
       0.015992094 -0.0013761676 -0.017685214 0.032899037
000230 13 19 4e bc 44 a5 cb 3c fe fd 61 bc 5a 13 c2 3c
       -0.01257922 0.024859078 -0.013793467 0.023690868
000240 c9 d6 34 3c 05 72 2e 3c 50 13 38 3d 0b d0 39 3c
       0.011037537 0.010647302 0.044940293 0.011341105
000250 b1 28 fe 3c b7 dc 8d bc 19 c7 25 3c 45 74 80 3c
       0.031025263 -0.01731716 0.010118269 0.015680442
000260 d6 2d 8f 3a b4 4a 15 3d 72 ed 34 3c b4 b2 9f 3c
       0.0010923694 0.036448196 0.0110429395 0.019494392
000270 03 f4 28 3c b4 e6 40 3b 78 62 84 3c 0a 68 93 3b
       0.010312083 0.0029434385 0.016160235 0.0044984864
000280 47 83 f8 3c 9b 80 20 3b 8b ee 26 bc 12 9f ab 3c
       0.030336035 0.0024490717 -0.010188709 0.020949874
000290 ad 41 dd 3b c7 8c c8 3b 2a 8f 42 3b a5 0a ee bb
       0.006752214 0.0061202976 0.0029687383 -0.0072644525
0002a0 f9 fc 2c bc f2 30 87 ba 2d 50 e8 ba cf c0 a0 3c
       -0.01055836 -0.001031427 -0.001772409 0.019623188
0002b0 8b ef 64 bc 49 4f 2a 3c ba 1b c6 ba 48 2f a6 3a
       -0.013973127 0.01039488 -0.0015114464 0.0012678886
0002c0 55 da 33 3c 08 e7 e6 3b 8e 27 a7 bc 11 08 3b 3b
       0.010977347 0.007046584 -0.020404603 0.0028538743
0002d0 cf d7 b5 3b 93 ef 8d bc db 6e 49 bc 16 9b 00 3c
       0.005549408 -0.017326152 -0.012294496 0.007849475
0002e0 84 cc b2 3b 81 ae 31 3c 29 19 8b bc e8 3b c7 3c
       0.005456509 0.010844828 -0.01697977 0.024320558
0002f0 cf 54 65 bc 13 62 06 3c 2b 98 b8 3c 3f 76 a3 3c
       -0.013997271 0.008202094 0.022533497 0.019953845
000300 49 b3 50 bb a0 2e 37 bc 45 f4 b8 3c 89 4b 2f 3a
       -0.0031845144 -0.01118055 0.022577414 0.0006686976
000310 6f b2 e7 3b 9b 91 c1 bc 70 2c 2c bc a5 76 9c 3b
       0.0070708315 -0.023629 -0.010508642 0.0047748857
000320 74 df 97 bc 5b a9 af 3c 91 87 c2 bc cd 68 b0 3c
       -0.018539168 0.02144306 -0.023746284 0.021534348
000330 de a0 8a bc 42 20 a6 3c 9f 7c 05 3d 3e 7f 92 3a
       -0.01692241 0.020279054 0.03258955 0.0011176837
000340 5a fe 35 3c 30 44 ae bc a2 b3 3b bc a5 49 98 ba
       0.011108005 -0.021272749 -0.011456402 -0.0011618627
000350 a1 9a cd bb b4 26 a0 bc 71 76 04 3b a9 cb fe 3a
       -0.0062745367 -0.019549705 0.0020212198 0.0019439358
000360 49 cd b0 3c 3c 27 03 3d f3 1e 17 3c c7 08 44 3b
       0.021582263 0.03201984 0.009223687 0.0029912458
000370 7f 8c 06 ba eb 3d f5 3c d1 0d 0a 3d 70 4b 9b 3c
       -0.000513263 0.029936751 0.033704583 0.01895687
000380 36 c2 ff 3b 08 30 bd 3b 0b 8c 7c bb c9 c0 d1 bb
       0.007805134 0.005773548 -0.003853562 -0.0064011556
000390 8a e1 b3 3a 42 ff 43 3c 85 db a3 3a 58 75 8f 3c
       0.0013723832 0.011962714 0.0012501335 0.017512009
0003a0 d9 bd 5d 3c ab cd d4 3c ab e9 e0 3b f0 2d ad 3c
       0.013534033 0.025976976 0.006863793 0.021140069
0003b0 f1 0b dc 3b 20 75 bc 3c 90 dd 5d 3b dd f1 c4 bc
       0.0067152907 0.023005068 0.0033853985 -0.02404111
0003c0 ec 98 da bc 95 08 77 3c a6 5f 05 bb 4b de f3 bb
       -0.026684247 0.01507773 -0.00203512 -0.007442271
0003d0 aa a9 43 bc 0c 31 9b 3c a3 cd bb 3b b4 78 5d bb
       -0.0119423065 0.018944286 0.005731301 -0.0033793868
0003e0 9d 2e 85 bc 5a 3d fe 3b 30 15 86 bc 0b 50 9a 3c
       -0.016257579 0.0077587785 -0.016367525 0.018836996
0003f0 2e 92 f1 bc d0 4b e8 bc 54 2b 48 bc 2f 27 09 bc
       -0.02948865 -0.028356463 -0.0122173615 -0.0083711585

encoder.4.bias f4 [64]
000000 fe 2e 7a 3b 4e 6e b5 b9 dc f3 3e 3c 25 7e e3 bc
       0.0038174982 -0.00034605194 0.01165482 -0.027770111
000010 67 48 74 bc d0 c2 cf bc 03 6d cb bc 42 52 b0 3c
       -0.01490984 -0.025361449 -0.024832254 0.021523599
000020 95 59 1d bd f3 8d e7 3c f4 ce e0 3c 39 47 26 3b
       -0.03841551 0.028265929 0.027442433 0.0025372042
000030 22 d3 3f 3c 1c a8 8a 3c 8c 68 e1 bb 2e 79 b4 bc
       0.011708053 0.016925864 -0.006878918 -0.02203044
000040 fc b1 0b bd ca c6 cd b9 d2 96 68 bc 50 98 82 ba
       -0.034105286 -0.00039248756 -0.014196115 -0.0009963606
000050 5e e5 d3 bc 1d a6 9f bc be 7d cc 3c d0 4f 13 3c
       -0.025866207 -0.019488389 0.024962302 0.008991197
000060 76 40 8e bc 8a 55 ed 3c 22 51 c9 3b 7f 87 4d bc
       -0.017364722 0.028971452 0.006143705 -0.012544512
000070 83 6b 67 bb 53 ba 7d 3c 69 f9 b4 3a a5 8b 93 3c
       -0.0035311885 0.015486318 0.001380724 0.018010924
000080 d5 58 dd 3c 69 b2 99 3c 15 a7 c3 bb 2a ab bc bc
       0.027019897 0.01876183 -0.0059708455 -0.023030836
000090 13 41 12 3c 84 21 4e 3c a0 49 9f bc 05 5a 0f 3c
       0.008926648 0.012581233 -0.019444287 0.00874949
0000a0 ad 2a a9 bc f5 42 7c 3c 05 12 25 3c e1 88 98 3c
       -0.020650232 0.015396823 0.010075097 0.018619956
0000b0 9e 7d 03 3b bc 87 a2 3c 4c 23 8e 3c 92 24 99 3c
       0.0020063887 0.019840114 0.017350815 0.018694196
0000c0 d8 4a df 3c 44 c7 1c bd 45 77 95 b9 99 45 ff 3b
       0.027257368 -0.038275972 -0.00028508357 0.007790279
0000d0 89 1c a5 3a b4 b3 47 bc 9b 80 01 3d e1 7b 0b 3d
       0.0012597005 -0.012188841 0.03161679 0.034053687
0000e0 f5 f6 0a bc 64 2f 18 bb 10 24 4b bc b9 27 c0 bc
       -0.008481731 -0.0023221606 -0.012398735 -0.023456441
0000f0 85 2e d8 3b 9f bf c4 bb 8b 3b 45 3c 0e a2 15 bc
       0.0065973424 -0.0060042883 0.012038122 -0.009132875

decoder.0.weight f4 [64, 32, 7, 7]
000000 7e bb 97 3b 1d 9d a2 3c 72 b5 2e bc 44 1b 01 bc
       0.004630505 0.019850308 -0.010663377 -0.007880036
000010 c0 cc 69 3c 26 8c 92 bc f2 79 e0 3c 44 8c 84 bb
       0.014270008 -0.017889094 0.027401898 -0.0040450413
000020 4a f0 d6 3b 52 b5 68 bb 1d 64 c9 3a 33 df cf 3c
       0.0065594064 -0.0035508466 0.0015364919 0.025374984
000030 f9 5f ff bc cd 12 9f bb ac f6 c1 ba e4 a2 8c bc
       -0.031173693 -0.004854536 -0.0014798245 -0.017167516
000040 29 57 02 bc 43 82 c0 bb 8a 88 e1 3b a8 ce bc 3b
       -0.007955351 -0.0058749034 0.006882732 0.00576194
000050 0e da 21 bd 94 f4 43 3b 41 e0 fb 39 46 a9 25 bc
       -0.039514594 0.0029900419 0.00048041533 -0.010111159
000060 a5 89 72 3c 26 22 56 3c 1d 71 02 3d db be bf ba
       0.014803325 0.013069665 0.031846154 -0.0014629023
000070 b7 b5 25 bc 9f ee 58 3b b4 0a 25 3c 3b 41 87 3c
       -0.010114125 0.0033101214 0.010073353 0.016510596
000080 8b 44 d7 3b ff e8 1e 3c 56 dd cb 3a 89 ac 4d 3c
       0.0065694503 0.009699105 0.0015553634 0.012553343
000090 99 ba c6 bb 62 e0 6f 3b a0 33 bb 3a b4 a5 b1 b9
       -0.0060647246 0.0036602248 0.0014282353 -0.0003388353
0000a0 bf bf b9 3c 5a 27 e8 3b 40 91 5a bc f9 67 a2 bc
       0.02267444 0.007084769 -0.013340294 -0.019824969
0000b0 d5 e3 3d bc 06 28 8d bc c2 33 71 bc 59 2e 2a bd
       -0.011589964 -0.017230999 -0.014721813 -0.041548107
0000c0 79 45 a7 bc 40 4b 01 bc 86 64 ba bb a2 56 90 bc
       -0.02041887 -0.007891476 -0.005688253 -0.017619435
0000d0 69 17 3c bc 9f 9f 1c 3b 0b d0 55 3a 09 ab e7 3c
       -0.011480191 0.0023898853 0.0008156306 0.028279798
0000e0 4e 02 1e 3a 55 df 20 3b 26 8e 05 3a 95 33 b0 bc
       0.0006027565 0.0024547179 0.0005094729 -0.021508971
0000f0 2f ba e2 bc 8d ab 0d bc fd 7d e4 3c c0 be 4f bc
       -0.02767667 -0.008646858 0.027892107 -0.012679756
000100 6f 1d 6a 3c d9 f5 8c bb 33 61 00 3c 0c 68 2f 3c
       0.014289244 -0.0043017683 0.007835674 0.010705959
000110 53 46 82 bb 86 86 db 3c ff a0 9f bc 66 6e 25 3c
       -0.0039756685 0.026797544 -0.019485949 0.010097122
000120 88 56 cf bb 8a 39 00 3b ae 39 01 bc 8f be a3 3c
       -0.006327454 0.0019565546 -0.007887287 0.019988326
000130 ca 11 0f 3d 73 6c a3 bb 27 54 d2 3b 2f ec 64 3c
       0.034929074 -0.0049872934 0.006418723 0.013972326
000140 d3 33 b1 3b e5 79 b5 ba b3 a8 72 3b 06 46 6d 3c
       0.0054077893 -0.0013845532 0.0037026822 0.014482027
000150 87 e7 03 bd 46 e6 67 bc ff 02 59 bc ee 70 d7 bb
       -0.032203224 -0.014154023 -0.013245343 -0.0065747416
000160 cb 07 af bb 56 24 b0 bc 98 92 f3 bb 70 22 15 3c
       -0.005341505 -0.021501701 -0.007433247 0.009102449
000170 3f 95 f3 3b 9f c1 ec 3b 8a 80 7d 3c 2d ae 87 bc
       0.007433563 0.00722523 0.015472541 -0.016562546
000180 fd 37 da 3b 40 19 f7 ba da 8c 2a bc dd 10 5e bc
       0.0066595064 -0.001885213 -0.010409558 -0.013553825
000190 40 2f 98 bb 74 3c dd bc 8b 29 8f 3a 14 d5 1d bb
       -0.0046443045 -0.027006365 0.0010922415 -0.0024083303
0001a0 c1 f2 ec bc 77 58 72 bc a4 96 58 3c e4 e9 3d 3c
       -0.028924348 -0.0147915995 0.013219509 0.011591408
0001b0 62 98 9d bc b9 f8 b4 bc 83 9e 32 3c b0 dc 57 bc
       -0.0192377 -0.022091256 0.01090205 -0.013175175
0001c0 01 1e 54 3b 22 45 bd 3c 7f ca 3e 3b 4c 44 09 bc
       0.0032366517 0.023104254 0.0029112396 -0.0083781
0001d0 6c d8 91 bc b5 fe 5f 3c ae 07 62 3c b9 97 cc ba
       -0.017803393 0.013671567 0.013795776 -0.0015609182
0001e0 72 f4 65 bc 33 e9 12 bc ac e3 cc 3b 92 cf 87 3c
       -0.014035331 -0.008966732 0.0062527265 0.01657847
0001f0 67 c8 9d 3c 45 b6 4a bb 47 b4 62 bc 66 ae 86 3a
       0.019260598 -0.0030931395 -0.013836927 0.0010275363
000200 47 81 8c 3c 3d be 8c 3c 79 62 2e bc 21 b3 d7 3c
       0.017151488 0.017180556 -0.010643595 0.026330533
000210 65 72 36 3c 34 93 3e bc f0 83 18 bc c3 9b 9c bc
       0.011135672 -0.011631776 -0.0093088 -0.019117242
000220 02 78 2a bc 33 3d a5 bc b0 08 04 bd 9a 2e d8 3b
       -0.010404589 -0.020170784 -0.032234848 0.006597352
000230 7c 32 41 bc 60 88 46 bc e7 ef 11 bc 14 26 c8 3b
       -0.011791822 -0.012117475 -0.008907295 0.006108055
000240 fd 50 24 3b db 36 df bc 1b a0 04 bc 3b 4b dd bc
       0.0025072687 -0.027247837 -0.008094813 -0.027013412
000250 08 24 ca bb e9 0a 8c 3b ba be 4d 3c 94 ef a9 3b
       -0.006168846 0.0042737615 0.01255768 0.0051860306
000260 36 ca 4d bc 2b 3b 54 bd 43 f1 bd bb e1 2d 77 bc
       -0.012560418 -0.05181424 -0.005796583 -0.015086622
000270 a3 f5 60 3c 57 4c fc 3b 94 57 2b bb e6 88 5b 3c
       0.013730439 0.00769953 -0.002614473 0.013399338
000280 c9 73 24 bd 43 bc 81 3a 2f 5c 6a 3c cb 01 17 bc
       -0.040149484 0.0009898025 0.014304205 -0.009216736
000290 56 4c bb bc e8 ba a1 bb 72 e1 55 3b 40 6f ae 3c
       -0.022863548 -0.004935611 0.0032635597 0.021293283
0002a0 49 37 df bb 09 19 85 3c d5 cc 65 bc 44 ac ba bc
       -0.0068120104 0.01624729 -0.014025887 -0.02278722
0002b0 b6 d4 7a 3c 41 69 db 3b 31 cd 2a 3d be 89 3b bc
       0.015309503 0.006695897 0.041699592 -0.0114464145
0002c0 56 22 70 3c e8 bb 34 bc ea e6 cb bc 01 31 c5 bb
       0.014656624 -0.0110311285 -0.024890382 -0.0060178046
0002d0 d9 ce c4 3c cc ad 65 3c 4b 42 a4 3b cc 55 d3 3a
       0.024024414 0.014018487 0.0050127856 0.0016123592
0002e0 79 1c 51 3a 1f e4 2e bc f9 b4 09 bc ce b8 13 3c
       0.000797696 -0.0106745055 -0.008404964 0.009016229
0002f0 75 6a d6 3c 24 2b e1 bb 83 b3 fe bb 0b 72 90 bc
       0.02617381 -0.006871598 -0.0077728643 -0.017632505
000300 67 46 6c bc 53 96 97 bc 0f fc 43 bb c5 05 3f bb
       -0.014421082 -0.018504297 -0.0029904877 -0.0029147726
000310 e7 17 5d 3c 1a e5 d1 3c fc 54 fc bb b4 17 c0 bc
       0.013494468 0.02562194 -0.0077005606 -0.023448803
000320 74 19 02 bc 12 07 2d bc 5e c9 26 3d 1f 6b 72 3c
       -0.007940639 -0.010560768 0.040719382 0.0147960475
000330 75 c4 19 bc cd 55 89 bc 77 29 be 3c 59 20 a7 3c
       -0.009385218 -0.016764546 0.023213131 0.020401167
000340 91 83 b6 bc 80 18 24 3c 89 97 35 bc 2f 88 43 bc
       -0.022279533 0.010015607 -0.011083492 -0.011934324
000350 2f 16 8d 3a e9 dd b7 3c 71 fc 24 3c 50 a1 cf 3b
       0.0010764058 0.022444682 0.010069952 0.0063363686
000360 3f e0 9c ba 81 18 92 bc 88 2e cd bc 57 74 00 bb
       -0.0011968686 -0.01783395 -0.025046602 -0.0019600594
000370 90 71 b2 3b 39 ef d5 bc 3d 96 d9 3a 1b d5 d7 bc
       0.0054456666 -0.026115047 0.0016600561 -0.026346734
000380 2b f9 c8 bc b9 66 a7 bc b8 af 98 bb d1 87 ad 3b
       -0.024532875 -0.020434724 -0.004659619 0.0052957316
000390 12 8f 0d 3c 9d 4c 20 bc ae a6 8b bc f3 9c 80 bb
       0.008640068 -0.009783891 -0.017047253 -0.00392496
0003a0 51 59 03 3b fc f9 9b 3c 27 27 83 bc 54 79 8f bc
       0.002004225 0.0190401 -0.01600988 -0.017513908
0003b0 25 ca 8c 3c 13 94 a7 bc 75 0a 15 bd b5 40 49 bc
       0.017186234 -0.02045635 -0.036386926 -0.012283494
0003c0 41 b1 21 3c 78 03 f5 bb 11 a9 2a bb 96 d2 30 bc
       0.009868921 -0.00747722 -0.0026040713 -0.010792395
0003d0 36 72 90 bc 3c 46 b4 ba c7 0f 2f bc 33 1a dd 3b
       -0.017632585 -0.0013753842 -0.010684914 0.006747508
0003e0 62 6e b1 3b 67 c0 39 bc 6e f8 e7 bb 82 10 3d bc
       0.00541477 -0.011337376 -0.0070791757 -0.01153958
0003f0 30 a1 7a bc 67 de c3 bc 73 23 74 3c d6 64 4d ba
       -0.015297219 -0.02390976 0.01490103 -0.0007835155

decoder.0.bias f4 [32]
000000 38 45 61 3d 70 db 4c 3d 51 9c 92 3d 05 e7 55 3d
       0.054997653 0.05001396 0.07158721 0.05222227
000010 98 e4 d4 3c dc ed 28 3d 8f f4 75 3d a4 89 87 3d
       0.025987908 0.041242465 0.060047682 0.0661805
000020 0b eb f8 3c af 2b 65 ba f6 24 c3 3d a5 69 1b 3d
       0.030385515 -0.0008742166 0.09528534 0.037942547
000030 18 e8 1f 3d 33 8f c3 3c 61 31 1c 3b 7d 56 71 3d
       0.0390397 0.023871994 0.0023833143 0.058920372
000040 96 bf bb 3d eb 85 c5 bc 84 b9 82 bc ab ed ad 3d
       0.091674015 -0.024111709 -0.015957601 0.08492597
000050 62 cf 45 3d b2 a2 da 3c 26 65 87 3d c1 c7 5f ba
       0.04829348 0.026688907 0.066110894 -0.00085365406
000060 18 1c cd 3d c1 b2 0e 3d 5a fd 1e 3d 1b 6f a0 3d
       0.10015124 0.03483844 0.038815834 0.07833692
000070 a7 de 56 bc cd 3b 84 3c 01 80 67 ba 4f 89 53 3d
       -0.013114608 0.016141796 -0.0008831025 0.05164462

decoder.2.weight f4 [32, 16, 3, 3]
000000 0d d7 8d bc dd 46 23 bd d7 c4 12 bd de 2d 1d bd
       -0.017314458 -0.039862502 -0.035832252 -0.03837382
000010 4f a9 dc bc 2e d5 00 bd 69 6c d1 bd 39 03 c8 bc
       -0.026936201 -0.031453304 -0.10225756 -0.0244156
000020 06 6b bc bc 36 dc 58 3d ab 68 fa 3d ae 76 67 3d
       -0.023000252 0.052944385 0.12226995 0.056509666
000030 3e aa 30 3e 0c 29 21 3e d5 9a d8 3d 39 2f c3 3d
       0.17252442 0.15738314 0.10576407 0.095304914
000040 36 2f ef 3c 93 16 c6 3d dd 29 2b 3d 1e b2 88 3d
       0.029197317 0.096722744 0.04178797 0.06674598
000050 b4 0b 50 3c 2e 3c 2c 3d 9b dd 9c 3d 5c c0 e1 3d
       0.012698103 0.04204958 0.076594554 0.11023018
000060 95 29 c7 3d 64 21 c0 3d c7 a1 4b 3d 05 58 ec bc
       0.09724728 0.09381369 0.04971483 -0.028850565
000070 ab 70 0f 3d e4 46 70 3d 0a f1 9d bc 57 33 bc bc
       0.035019558 0.058661357 -0.019279975 -0.0229737
000080 c0 3e 22 3d 7a d4 34 bd a9 7c 97 3c 6f 2d 85 3d
       0.039610624 -0.044147946 0.01849206 0.065028064
000090 f0 4d b4 bd 53 f3 82 3b 51 72 df 3c dc 8b 45 bc
       -0.08803928 0.0039962917 0.02727619 -0.012057271
0000a0 56 4b ff 3c b0 61 c4 bb 02 4f 95 bc 47 78 1b 3c
       0.031163853 -0.0059930906 -0.01822615 0.009489126
0000b0 9d 0f 4c 3d 9f 84 b3 bd f9 41 27 bd 84 99 77 3d
       0.049819577 -0.0876553 -0.0408344 0.06044914
0000c0 4a ba 8f bd e0 d6 8a bd 57 74 80 3c 40 bd 45 bd
       -0.07017954 -0.067792654 0.015680475 -0.048276186
0000d0 4e bd 29 3d 76 08 f7 3c 04 24 c3 3d ee ee e3 3d
       0.0414403 0.030155402 0.09528354 0.111295566
0000e0 4e b9 d1 bc 29 8a ad 3d 6c 4c c2 3d 1f b5 c3 3d
       -0.025601055 0.084736176 0.094872326 0.095560305
0000f0 d6 c1 74 3c fd 2e 29 3d 1f 34 c3 3d 00 da 34 bc
       0.014938792 0.041304577 0.09531426 -0.011038303
000100 89 53 0c 3d a1 e4 c0 bc 29 96 8d bd f7 7c 67 3b
       0.034259353 -0.023546519 -0.069134064 0.0035322288
000110 55 0a 81 bd b1 d7 d1 3c f8 77 43 bd cf 87 35 3a
       -0.06300799 0.025615545 -0.047721833 0.0006924839
000120 5c 34 60 3d 23 dd c9 3d d1 a5 0b 3d 52 7c cb bc
       0.054737434 0.098566316 0.03409368 -0.024839554
000130 15 c5 11 bd 3d c0 dd ba 2a ff 78 3d 45 4c 10 3d
       -0.035588343 -0.0016918253 0.06079022 0.035228986
000140 f8 ee ae 3d e3 c4 a5 bb 10 eb 86 3d e7 db 87 3d
       0.085416734 -0.005058871 0.06587803 0.0663374
000150 8e 33 bf 3c 4e 6f c0 3d 89 eb 93 3d 28 fa 00 bc
       0.023340013 0.0939623 0.07222659 -0.007872142
000160 8b 56 10 3d 70 32 d9 3c b6 12 7e 3d 11 b5 ba 3d
       0.035238784 0.026513308 0.062029563 0.09116567
000170 dd 42 05 3e 38 4a ce bc 3e 2c fa 3d 19 4b 03 3e
       0.13013788 -0.025181875 0.1221547 0.12821616
000180 64 95 a9 bc 84 de 09 3e 00 fd 00 3d 9e 8a e8 3a
       -0.020701118 0.13463789 0.03149128 0.0017741506
000190 58 a1 87 bc 1f 15 38 3a 2f ff 87 bc 24 a4 49 bd
       -0.016556427 0.000702219 -0.016601173 -0.049228802
0001a0 2e 8c bc bc f8 b6 e6 3c 61 79 15 bd f8 d0 1c 3d
       -0.023016062 0.028163418 -0.03649271 0.038285226
0001b0 21 cb 85 bd 48 87 b3 bc 21 03 35 3d a4 bc 6f aa
       -0.065328844 -0.021915093 0.044192437 -2.1292912e-13
0001c0 65 ae 79 bd 13 0c c3 a9 2f 36 ad bd a6 0e 62 bd
       -0.06095733 -8.661834e-14 -0.084576 -0.05518975
0001d0 89 b7 fc 3c 68 b7 e8 3b cd 08 e9 3b 00 c9 23 bd
       0.030849235 0.007101942 0.007111645 -0.03998661
0001e0 a0 66 b9 bc a3 ef ce 3d 1e 59 b8 bb 8d 92 3c bd
       -0.022631943 0.10104301 -0.005625858 -0.0460382
0001f0 16 ac ba 3c 1f 89 a3 3b 16 94 ad bd 6a 19 b5 3c
       0.022787135 0.0049907113 -0.08475511 0.022106845
000200 bd d1 b5 3d b8 79 09 3d 6b b1 5b ab 5d 2b fa ba
       0.08877895 0.033563346 -7.8050646e-13 -0.001908641
000210 d7 af 40 bd f4 fe 71 3d 2f 0b 37 3d 42 6c 4c bc
       -0.047042694 0.059081033 0.0446884 -0.012476983
000220 2b ef 00 3d 94 c2 c1 ba d5 ce 81 bb 8f 94 d3 3b
       0.03147809 -0.001478272 -0.003961424 0.0064569185
000230 03 33 87 39 04 8d 63 3c 75 06 57 3d ac 76 cc 3c
       0.00025787213 0.013888601 0.052496392 0.02495893
000240 57 52 14 3d 38 4e 38 3d e0 fd 47 3b 79 3f 38 3d
       0.036211338 0.04499647 0.0030516312 0.044982407
000250 8a e2 12 3c 81 de 8f bc 1f 1e 57 3d 56 67 21 3c
       0.008965144 -0.017562153 0.05251896 0.009851297
000260 fb 89 8b 3c aa 76 06 3d e4 e4 53 bd 8c 3c 9a 3d
       0.017033568 0.03282801 -0.05173196 0.0753108
000270 cd 31 36 bc 54 3f ba bd 17 f7 98 3d 73 bf 68 bc
       -0.011120272 -0.0909411 0.07469004 -0.014205801
000280 93 bd 58 bd 08 3e d9 3c 06 2b 07 bd 7e ed cb 3a
       -0.052915167 0.026518837 -0.033000015 0.0015558449
000290 ec 18 75 bc 77 2e b3 3c 65 35 69 3d c7 98 a4 3d
       -0.014959555 0.021872742 0.056935687 0.080369525
0002a0 2f d9 b2 bc 27 82 64 3d 1b c1 81 3d 06 5f 87 3b
       -0.021832077 0.055788185 0.0633566 0.0041312007
0002b0 dd 9f 8e bb 18 01 5e b8 15 f2 b6 3b 28 8a 26 bd
       -0.0043525533 -5.2929943e-05 0.0055830576 -0.0406591
0002c0 bf cf 4a 3d 01 1f 6c 3c 7c 42 02 bd 73 ef 44 3d
       0.04951453 0.014411689 -0.031801686 0.04807992
0002d0 8c d3 75 3d e9 80 e5 3c d7 b4 90 3c 7f 44 63 3b
       0.0600162 0.02801557 0.017664356 0.0034678278
0002e0 87 0c 32 bc 23 d3 f6 39 38 b4 ba bc ef de 90 bc
       -0.010867245 0.00047078085 -0.022791013 -0.017684428
0002f0 f6 dc 4e 3d 53 bc 39 3d 80 b7 17 bd 6d bf 3e 3d
       0.050503694 0.045345616 -0.037040234 0.046569277
000300 22 8b 8b 3d e2 24 96 3d 4a 5b b3 3d 29 7a 86 3c
       0.06813647 0.073312536 0.087576464 0.016415672
000310 d6 97 87 3c b3 c8 c5 3b e0 9b 04 3d 11 19 4e bc
       0.016551893 0.006035888 0.032375216 -0.0125792185
000320 dc 8f b1 3d ce ee 8b 3b 42 1c 38 bb c7 e4 de 3c
       0.08670017 0.004270411 -0.0028093015 0.027208699
000330 a5 b3 2c bd d9 75 19 3b 12 67 8a 3d c4 f2 b6 bb
       -0.04216351 0.002341619 0.0675794 -0.005583139
000340 99 6b 20 3c ff 36 86 bd d3 b8 00 3d bc 8f 8e 3d
       0.009791278 -0.065534584 0.031426262 0.06961009
000350 80 a5 de bb b7 53 14 3d 9b a2 40 bc 2e 7d ce bb
       -0.0067946315 0.03621265 -0.011757518 -0.0063015437
000360 1b af a4 3c 6e 98 8c bc ba e2 9b 3d 23 40 31 3d
       0.020103028 -0.017162528 0.07611604 0.043274056
000370 a9 da 51 3d 79 14 bd 3c ae 8d 90 bd a5 83 ca bc
       0.05123392 0.023081051 -0.07058273 -0.024720976
000380 74 3c 6b 3d f7 5f bf ba 99 ec f4 bc d9 b7 55 3d
       0.0574307 -0.0014600743 -0.029897975 0.052177284
000390 8c 55 74 bb 50 08 ef ba 7d b9 09 3c 1a bb 81 bd
       -0.0037282435 -0.001823673 0.00840604 -0.06334515
0003a0 89 e5 55 bd c3 51 89 bd 24 ce 1d 3b 6a 7f b4 3d
       -0.052220855 -0.06705048 0.0024079168 0.08813365
0003b0 57 c9 72 3b 3d 2c 5a bd f1 7c f3 3c c0 09 51 bd
       0.0037046277 -0.053264845 0.029722663 -0.05103469
0003c0 fa 5f c4 bc e3 03 d7 bc e3 4a 9a bd 07 c8 bc 3b
       -0.023971546 -0.02624697 -0.07533815 0.00576115
0003d0 d8 2e aa 3b 05 9d 08 bd 11 40 d6 bc bd f2 d5 3c
       0.0051935725 -0.03335287 -0.026153596 0.026116723
0003e0 81 6e 93 3b 8a f5 2c 3d 81 55 56 bd 98 3a 2c 3d
       0.004499257 0.04222635 -0.052327637 0.042048067
0003f0 e2 1d 36 bc df eb 43 3d c7 89 c2 39 8c c5 a5 28
       -0.011115523 0.047832366 0.00037105216 1.8404352e-14

decoder.2.bias f4 [16]
000000 d6 a4 15 bd 18 4d a3 3d 51 f0 1d 3d 75 1e 38 bd
       -0.036534153 0.07973689 0.03855926 -0.04495092
000010 fc c5 df ba 0b 40 d1 3d e3 07 33 3d 52 d2 c7 3d
       -0.0017072554 0.10217293 0.043708693 0.09756912
000020 ac 08 7b 3d b6 53 71 3d 81 ee 8a 3d fb b1 54 3c
       0.061287567 0.058917724 0.06783772 0.012981887
000030 df b4 da bb ac 48 84 bd 96 46 e9 bc 95 39 02 3d
       -0.0066743935 -0.064591736 -0.02847604 0.031793196

decoder.4.weight f4 [16, 1, 3, 3]
000000 6f c9 18 be 44 4e 3c be 11 95 39 3e f7 1c 3a be
       -0.14920591 -0.18389231 0.1812327 -0.18175112
000010 45 3c ad be af b2 47 3e fb 98 35 be 10 ef e4 bc
       -0.33835045 0.19501756 -0.17734139 -0.027946025
000020 5a 9e 3d be 3c 4d 35 3e 71 2d 58 bc ad 8b 05 be
       -0.18517438 0.17705244 -0.013194428 -0.13041563
000030 62 7a b8 bd 36 e9 a3 3e 4d d8 31 bc f8 4e 1f be
       -0.09007718 0.32013863 -0.010854793 -0.15557468
000040 cf c7 98 3e 93 89 ff 3d 5c 0b 84 3e 74 6a 7f be
       0.29839942 0.12477412 0.25789917 -0.24942952
000050 b5 fc db 3d aa 72 b9 3e 8d 76 00 3e e9 aa b7 3e
       0.107415594 0.36220294 0.12545224 0.35872582
000060 6e ce cf 3d b1 ae 04 be 63 8f 89 3d 09 65 9f 3d
       0.10146795 -0.12957264 0.06716802 0.07782943
000070 50 b5 3c be 0a a3 da bd ec ba 8a be 76 ea 4f 3e
       -0.1842854 -0.106756285 -0.27095735 0.20304283
000080 1a f2 b2 be 4f 6b f8 3d 73 27 95 3e 21 b4 d7 bd
       -0.34950334 0.121298425 0.2913166 -0.10532404
000090 2c 9f b3 bc 33 87 8a be d6 2c de 3d 34 bd 2c 3e
       -0.021926485 -0.27056274 0.108483955 0.1686905
0000a0 03 c4 0a 3e 38 74 87 3e 35 d0 5d 3c 34 ae 92 be
       0.13551335 0.26455855 0.01353841 -0.2864853
0000b0 04 9a 45 be ee d8 4d 3d 29 6f 12 be 39 82 3e be
       -0.19297034 0.05025571 -0.14300217 -0.18604364
0000c0 14 48 9a bd fe a1 de be 1f 27 85 be 57 c1 15 be
       -0.07533279 -0.43482965 -0.2600641 -0.14624535
0000d0 ab 01 c8 bd 57 d3 94 bd 4d 14 34 3e db a7 0d 3e
       -0.09765943 -0.072668724 0.17585869 0.13833563
0000e0 a4 a8 97 be df 97 b2 3e 1c e0 7e 3b f2 a0 2b bd
       -0.2962085 0.34881493 0.0038890904 -0.041901536
0000f0 fd 46 4e 3d ef 30 2f bd c2 65 0c be 56 ce ce bd
       0.05036067 -0.042771276 -0.13710693 -0.10097949
000100 01 b4 19 be ff a4 57 3d e1 0a 17 be 60 39 b4 bd
       -0.15010072 0.052647587 -0.14750244 -0.08800006
000110 f4 c0 c0 3d 45 50 14 3e 21 8a 7f be 8d 9b 8e bd
       0.09411803 0.14483745 -0.24955036 -0.06963263
000120 27 d3 3d 3e 78 f5 5e 3e 73 e7 2a 3e 66 b3 cb bd
       0.1853758 0.21773326 0.16689853 -0.09946327
000130 95 06 1d 3e 9e 15 1a be 3e 28 33 3d ef 60 7d 3e
       0.15334542 -0.15047309 0.04373955 0.24744008
000140 44 3a 20 be e6 3c 43 be 09 29 25 be fc 2b 92 3e
       -0.15647227 -0.190662 -0.16128935 0.28549182
000150 85 0e d5 3d 75 e5 9f 3e fa 0f 47 bd 67 84 5b be
       0.1040316 0.3122975 -0.04859922 -0.21437226
000160 47 69 52 3e 70 17 70 be 5a 4a 51 bd ce 18 db 3d
       0.20547973 -0.2344644 -0.051096298 0.106980905
000170 ed 56 90 bd 60 48 93 bd c8 d5 63 bd 4e 29 b8 3e
       -0.0704783 -0.07191539 -0.0556238 0.35969013
000180 9b 1c 56 3e da 75 1a 3e 3d d6 ac 3e 9f 5f af bd
       0.2090935 0.1508402 0.337572 -0.0856316
000190 4e 28 22 3e 46 bc 30 3e 5c bb a6 be 85 34 12 3d
       0.15835688 0.1725932 -0.3256482 0.035694618
0001a0 a2 99 77 be 64 6b 8e be 67 e7 5b 3e e8 11 77 3e
       -0.241797 -0.27816308 0.21474992 0.24127924
0001b0 51 29 1b b9 6f fa 70 bc 15 bc 94 be 04 d6 ea bd
       -0.00014797343 -0.0147081455 -0.29049745 -0.114666015
0001c0 22 07 21 be b9 db eb bd 8f d7 46 3e 4a c4 d6 be
       -0.15725377 -0.11516518 0.19418167 -0.41946632
0001d0 89 d3 22 bd 27 27 4f 3e 6a 7a e3 bc ad ec 90 bd
       -0.039752517 0.20229779 -0.027768333 -0.07076392
0001e0 fa b0 01 3c 31 11 40 3e 91 6e 8b be e6 11 ec 3d
       0.00791573 0.18756558 -0.27232793 0.11526851
0001f0 de 24 78 3e 97 39 72 3b 91 37 27 3e 05 1d ba 3e
       0.24232814 0.0036960596 0.1632979 0.36350265
000200 ad 87 6f 3e b3 42 5e bd 2e 2e ca 3d 70 59 2d 3d
       0.233916 -0.054262828 0.09872089 0.042321622
000210 0a 4e 40 3e 49 c4 04 3e 6e 12 70 3e 35 a6 a7 3d
       0.1877977 0.12965502 0.2344453 0.08185998
000220 a1 fb 2d be 46 8f 6b be f9 1f c2 bd 1f fe 5b be
       -0.1699052 -0.23003873 -0.094787546 -0.21483658
000230 66 63 54 3e 2d d4 91 3e ed a9 88 3d fe 92 8a 3c
       0.20741042 0.2848219 0.06673036 0.016915794
