models/forecast_conv1d.pt (torch, 29685 bytes, 5 tensors)

conv.0.weight f4 [32, 3, 3]
000000 66 97 bd bd b4 c6 19 3e de ee 72 3d a8 68 03 3e
       -0.092573926 0.15017205 0.059309833 0.12832892
000010 71 77 9c 3d ed 89 22 be 1e e8 01 be 70 07 94 bd
       0.07639969 -0.15872927 -0.12686202 -0.07227981
000020 fc 43 d6 3d 4b 50 bd bd 24 21 67 be ee 20 8d 3d
       0.10462186 -0.0924383 -0.22571236 0.068910465
000030 15 b5 61 bb 2e 9f 35 be 6a c8 15 3e 38 3d 25 bd
       -0.0034440209 -0.17736503 0.14627233 -0.040341586
000040 3a 76 04 3e 6b b0 38 be e4 c6 74 bd d3 64 9a bd
       0.12935725 -0.18036048 -0.05975999 -0.07538762
000050 11 8f 88 3e 19 4f 8b bd ec 35 05 be c4 f5 df bd
       0.2667165 -0.06802196 -0.13008851 -0.10935548
000060 c8 50 6a 3d b4 97 8d be 88 fa 34 be fb 16 a5 3e
       0.057205945 -0.27654803 -0.17673695 0.32244095
000070 6f 7b 0d 3e 84 da 3d 3c 98 3e d9 3d 3a 48 43 be
       0.13816617 0.011587743 0.10607642 -0.19070521
000080 14 c6 5e 3e 20 8f 67 bd f6 1e 21 be e0 c0 fb bd
       0.21755248 -0.05653298 -0.15734467 -0.12292647
000090 78 7c 93 3e 4a 31 6c 3e cd d7 a9 3e ec 00 f3 3d
       0.288059 0.23065677 0.33172455 0.1186541
0000a0 7b 8c 55 3e 58 a0 a7 bd 5b 72 5f be e0 52 7f 3c
       0.2085437 -0.0818488 -0.21820967 0.015583724
0000b0 3d d1 80 3e 81 96 34 3e 58 49 3b 3e 5d e1 92 3e
       0.25159636 0.17635538 0.18289697 0.28687564
0000c0 5b e7 18 bc 75 88 dc 3d ba de db bd 90 41 0b be
       -0.009332503 0.107682146 -0.10735841 -0.13599229
0000d0 58 01 20 3d 8a 31 63 3e 24 0c 88 3e 9b 39 8e 3e
       0.03906378 0.22186866 0.26571763 0.27778324
0000e0 2b de 30 3e 22 36 3a 3d 57 58 05 3e a3 9d 96 3e
       0.1727225 0.04546178 0.1302198 0.29417142
0000f0 be 77 1a 3e 68 d2 39 3d 09 31 96 3e 71 ec c5 bd
       0.1508474 0.045366675 0.29334286 -0.09664238
000100 a7 f2 7b be e7 ac 99 3e ef 0b ac 3e f8 8e ef 3e
       -0.24604283 0.30014727 0.33602855 0.46788764
000110 21 bb 5d 3d ee 96 0e 3e ac 7e df 3d 9b 48 44 be
       0.05413354 0.13924763 0.109128326 -0.19168322
000120 4f 65 a5 bd 0f b9 d0 be e1 a6 c5 be 5a b8 9f 3d
       -0.08075964 -0.40766189 -0.3860388 0.07798834
000130 19 a4 50 be 26 f3 75 3e 12 5a 7f 3e 5e a5 54 3e
       -0.20375098 0.24018535 0.24936703 0.20766208
000140 79 6b a1 3e 0b e1 56 be 61 71 98 ba 1e 72 16 3e
       0.31527308 -0.20984285 -0.0011630469 0.1469197
000150 64 2b a6 3e b8 c9 b2 3e 9a df 16 be 90 95 a9 3c
       0.3245498 0.34919524 -0.14733735 0.0207012
000160 b9 f2 91 3e 68 d0 56 3d 5a 5e 17 3e 05 ff eb bd
       0.28505495 0.052444845 0.14782086 -0.115232505
000170 74 53 7b 3e ea e7 48 3e 6a aa 35 3e da dd 55 be
       0.24543554 0.19619718 0.17740789 -0.20885411
000180 80 ce 30 bb c4 36 aa be 55 36 8a 3e b7 cd 62 bd
       -0.0026978552 -0.33244908 0.26994577 -0.055371966
000190 96 38 50 3e 6b 3d 1b be bf 39 38 3e 01 c0 b1 3e
       0.20334086 -0.15160148 0.17990778 0.347168
0001a0 80 50 73 3e a0 76 ba bd 36 d3 5e 3e c8 be 63 bd
       0.23761177 -0.09104657 0.21760258 -0.055601865
0001b0 06 73 87 3d 75 ac cd bc 2c ee 85 be a9 94 ff be
       0.06613736 -0.025106648 -0.26158273 -0.49918106
0001c0 87 0e b6 be 1b e2 f7 3d 94 d9 8a 3d 86 a7 4a be
       -0.35557958 0.12103673 0.06779781 -0.19790468
0001d0 fe 1d 6d be b9 5e 91 be bc c9 82 bd 2f 5f 41 be
       -0.23155972 -0.2839258 -0.06386134 -0.18883966
0001e0 86 4d 32 be b2 3b 8d 3e 67 81 4b be 9e f0 2e 3e
       -0.17412385 0.27584606 -0.19873582 0.17083976
0001f0 36 ab f1 bd 20 51 99 3d 09 c4 e7 be c1 61 47 be
       -0.11800234 0.074861765 -0.4526675 -0.19470884
000200 21 23 2c be 0b a8 31 3e 89 68 74 bc 89 34 ab be
       -0.16810276 0.1734926 -0.014917501 -0.3343852
000210 80 2c c1 bd 07 c8 8b be 10 97 97 bc d3 11 8e be
       -0.09432316 -0.27301046 -0.01850465 -0.27747974
000220 46 e2 21 3e 75 2f 80 3b 9f fd 99 be d3 fd cf 3d
       0.15808973 0.0039119073 -0.3007631 0.10155835
000230 4d c0 cd be c0 e5 08 3e c8 24 3c bd 7c 64 cb bd
       -0.40185776 0.13368893 -0.045933515 -0.09931275
000240 b8 5d 91 3d 34 be a3 3d 82 06 40 3e 41 be e9 bd
       0.070979536 0.07995263 0.18752483 -0.11413241
000250 1b 39 1b 3e bf bc 80 3d d8 01 4e be 6c d9 d7 bd
       0.15158503 0.062860005 -0.20117891 -0.10539517
000260 0c 49 d1 3d 94 31 0e bd e8 4e dc bd 29 5e 05 3e
       0.10219011 -0.03471525 -0.10757238 0.130242
000270 ce 53 16 3e 2f 19 82 3e bf fc 0c 3d c6 3d 57 be
       0.14680406 0.2540984 0.034420725 -0.21019658
000280 4a 7c 66 3e f0 64 da bd c1 f7 95 be 34 6d cd 3d
       0.2250835 -0.106637836 -0.29290584 0.100305945
000290 36 b2 63 3e 70 7a 44 3e 3c a6 51 3e e4 69 4c 3e
       0.22235951 0.19187331 0.2047357 0.19962269
0002a0 eb 65 7b be 06 2d d6 bd cf fe 8f be 2f 63 5b 3c
       -0.24550597 -0.10457806 -0.2812409 0.013390346
0002b0 ad 60 94 be c0 51 68 3e a4 5d 1f be 11 90 82 3e
       -0.28980008 0.22687435 -0.15563065 0.2550054
0002c0 0d 2e da 3e 2c 9a e2 3d 06 da be bd 46 8b fb bd
       0.4261326 0.11064562 -0.093189284 -0.12282424
0002d0 ce 4e 79 bd c2 2a 10 3c 93 bf a3 bd 26 e2 b6 3e
       -0.06086617 0.008799257 -0.07995524 0.35719413
0002e0 26 de 6f be 16 ae 9b be 06 b6 cb bd bc 29 f7 bd
       -0.23424587 -0.30406255 -0.099468276 -0.12068507
0002f0 00 40 16 bd d6 d1 5a 3d 52 df 94 3e d5 db 88 be
       -0.03668213 0.05342277 0.2907663 -0.2673022
000300 93 20 83 3e c5 0d 41 be ba 96 8a 3e 5e 4d 44 3e
       0.2561079 -0.18852909 0.2706812 0.19170138
000310 63 cd 7b be 40 40 18 bd eb c3 29 be d1 b5 5e 3e
       -0.24590068 -0.03717065 -0.16578643 0.21749045
000320 61 f5 27 3d d2 d8 df 3c 22 f3 af 3e bc 46 1e 3d
       0.041005496 0.027325068 0.34365183 0.038641676
000330 78 0f 6c be 20 78 4b 3c 0f 53 a6 3e e5 b0 26 be
       -0.23052776 0.012418777 0.32485244 -0.16278417
000340 ae f3 80 bd 69 1d 5a be 33 49 e2 be b7 d5 f5 bb
       -0.06296478 -0.21300282 -0.44196472 -0.0075022834
000350 45 7a 3b be c0 81 56 be 6e f2 3c 3e 6c 42 ee bd
       -0.18308361 -0.20947933 0.18451855 -0.11633763
000360 cb 78 96 3d e1 b8 c7 bc 88 0a 6b bd 02 a0 51 be
       0.07347258 -0.02438015 -0.05738309 -0.20471194
000370 fb 02 92 be 3d 2f e8 bc f6 34 92 be 0a 55 4f 3e
       -0.285179 -0.028342837 -0.2855603 0.20247284
000380 74 7e 9e bd 58 cc a4 3e 03 9f c3 bc 5d d2 33 be
       -0.07738963 0.32187152 -0.023879534 -0.17560716
000390 2f 74 88 3e 86 d3 26 bd 21 80 96 3d d5 35 a8 3e
       0.2665114 -0.04072907 0.073486574 0.3285357
0003a0 12 62 5f 3e 58 04 0e 3e 6a ac c7 bd 1b 8c 9b 3e
       0.21814755 0.13868845 -0.09749682 0.3038033
0003b0 20 77 40 be 7a 43 c8 bd 20 54 cb bc c8 e3 49 3e
       -0.18795443 -0.09778495 -0.024820387 0.19715798
0003c0 e0 26 29 be 40 10 4b be 60 9e b5 bd 0e 61 ae bd
       -0.16518736 -0.19830418 -0.08868098 -0.085146055
0003d0 8a 9a 1c be a7 0b 38 be b9 8c cd be 37 4c c6 bd
       -0.15293327 -0.17973195 -0.40146425 -0.096825056
0003e0 bd 5f 44 3e 6c a3 e7 bd 00 2c 90 be c8 8b 14 3d
       0.19177146 -0.11310467 -0.2815857 0.03626612
0003f0 0b 5c be 3d 75 0d 50 be 9f 33 98 be ff cc 2e 3e
       0.092948996 -0.20317633 -0.29726884 0.17070387

conv.0.bias f4 [32]
000000 9b 79 b4 be 79 d7 c2 be bc b9 ca 3e d0 a8 8a 3e
       -0.35249028 -0.38055018 0.3959483 0.2708192
000010 f5 3d ae 3e 0c 7d 26 be 6a ce 3c 3e 28 bb 72 3d
       0.34031644 -0.16258639 0.18438116 0.059260517
000020 56 d9 af bc 00 09 b1 3e bb 0b 36 be d3 67 2d 3e
       -0.021465939 0.3457718 -0.17777912 0.16934137
000030 69 d7 df 3d ec 18 bd 3e 5c 03 97 bc 37 fd 23 be
       0.10929758 0.36933076 -0.018434219 -0.16014563
000040 c3 fc a2 3c 5f f0 f6 3e fd d2 ea 3e 6a 55 d0 3e
       0.019895917 0.48230264 0.45864096 0.40690166
000050 11 bc 90 3e 00 e2 5d be 71 10 10 3e 99 09 ac 3e
       0.28268483 -0.21668243 0.14068772 0.33601072
000060 15 f0 bb 3e 91 88 bc be 3a f7 e8 3e ce 36 3e 3e
       0.36706606 -0.36822942 0.4550112 0.18575594
000070 6e eb aa 3e d9 d9 d2 3e 8d 78 04 3e 5e 21 8a 3e
       0.33382744 0.4118183 0.12936611 0.26978582

conv.2.weight f4 [64, 32, 3]
000000 ff 85 06 bd 8d 04 8e 3b 47 1b ca bc 21 57 2b 3d
       -0.032842632 0.0043340386 -0.02467121 0.04183114
000010 1e d9 98 bd f5 57 3a 3d f7 0f 7d bd b3 23 9b bd
       -0.07463287 0.04549404 -0.061782803 -0.075751685
000020 66 a0 64 3d c9 de 53 bd ff 18 f1 bc 01 3b a1 bc
       0.05581703 -0.051726136 -0.029430864 -0.019681456
000030 5e 57 60 3d 03 67 60 3d 4c 5c 20 3d fe 94 c0 bc
       0.05477082 0.05478574 0.03915052 -0.023508545
000040 d5 23 7a 3d 7d c1 7b 3d 8b 75 a6 3c 64 bc 99 bd
       0.06106933 0.06146382 0.02031972 -0.07506636
000050 4b f5 c6 bd 1c c5 fb bc 72 c7 24 3d 58 5b b0 bd
       -0.09714755 -0.030733638 0.04022927 -0.086111724
000060 dd df c4 bb 53 af c4 bd a7 3c f4 bd 84 81 08 bd
       -0.006008132 -0.09603753 -0.11925631 -0.03332664
000070 c8 ab d8 3c 85 3c 90 3d 85 d9 90 bd bb 6a 29 bd
       0.0264491 0.07042793 -0.070727386 -0.04136155
000080 71 11 55 3d 76 9b ae bd 67 3b b5 3d b5 04 e7 bd
       0.052018587 -0.085257456 0.08849221 -0.11280195
000090 e1 85 28 bd 24 01 f0 3c 49 81 33 bd ea 4d 55 bd
       -0.041143302 0.029297419 -0.043824468 -0.052076258
0000a0 12 be 4e 3e 86 99 a9 bd af 3d 5a 3d c1 de 65 bd
       0.20189694 -0.082812354 0.053281482 -0.056120638
0000b0 6f f8 65 be 51 97 1b bd 92 de aa 3d c4 43 eb bd
       -0.22458051 -0.037986103 0.08343233 -0.11487535
0000c0 d6 93 85 3d 21 33 6a 3d a5 99 a1 bd c0 ed 9c bc
       0.06522338 0.057177667 -0.078906335 -0.019156337
0000d0 c7 6b 0e 3b b5 5a 8a be 54 ab 47 3c f8 e8 ff ba
       0.002173172 -0.2702233 0.012186844 -0.0019524386
0000e0 b5 a4 41 3c d5 1f b0 3d 85 39 37 bd 46 ab 00 bd
       0.011819054 0.085998215 -0.04473259 -0.03141334
0000f0 dc bc 03 be 9a a6 f0 bd 99 be 2d 3e e9 31 8b bd
       -0.12865013 -0.11750527 0.16967238 -0.06796629
000100 98 f3 14 bd a8 e8 34 3d d9 1d fe bd 68 2a 41 bd
       -0.03636512 0.04416719 -0.12408037 -0.047159582
000110 45 6f a5 bd b0 36 92 3d 08 a7 a4 bd 9b 5c a6 3b
       -0.080778636 0.07139337 -0.08039671 0.0050769574
000120 7c 66 9d 3c 52 ab ac bd 6e 07 dd bd 14 6c 77 3d
       0.019213907 -0.08431114 -0.10792433 0.060405806
000130 6f cd f6 bc 7f 06 11 3a e7 05 18 bd 49 62 6f bc
       -0.030127255 0.0005532279 -0.037115004 -0.014610835
000140 ed 6a b0 bc 26 1b a6 bd ff 56 a6 bd 30 8f 35 be
       -0.021535361 -0.08110647 -0.08122062 -0.17730403
000150 c7 26 19 be 84 81 49 3e 09 60 cb 3d cd 05 cc bc
       -0.14956199 0.19678313 0.099304266 -0.02490511
000160 b8 06 89 bc 97 40 2a bc 4e 41 eb bd e1 0e af 3d
       -0.016726837 -0.010391376 -0.11487065 0.0854776
000170 49 d6 d6 bd 68 17 59 3b 79 8d 41 3d 1c 3a d7 bb
       -0.104900904 0.0033125523 0.04725406 -0.0065682065
000180 36 e8 cd bd f1 16 93 bd 81 2e 7a bd 6a d4 da 3c
       -0.10054056 -0.0718211 -0.061079506 0.026712615
000190 90 14 9d bc 93 41 4a bd 29 d7 85 3c 6b c9 d8 bd
       -0.019174844 -0.049378943 0.016337948 -0.105852924
0001a0 bc bc 9e bb e7 6e 86 3c 06 ef 61 3d 83 d7 71 bd
       -0.0048442762 0.016410304 0.05515959 -0.05904342
0001b0 c4 84 cc bd 8f e9 98 3d 27 56 a2 3d 1b 21 4c 3d
       -0.099862605 0.07466423 0.079265885 0.04983626
0001c0 59 ea bf bc de 4f f2 3c 7f 9f 31 39 06 39 c7 bd
       -0.023427175 0.0295791 0.00016939452 -0.09727673
0001d0 52 f6 9c bd 48 16 e2 3b 85 51 2c bd ca 8c 59 bb
       -0.07664169 0.006899629 -0.04206993 -0.003319549
0001e0 cd 4a 40 be ed 5f 60 bc e3 98 1c bd b3 1b bc bd
       -0.18778534 -0.0136947455 -0.03823174 -0.09184971
0001f0 b0 30 19 3b 90 82 75 3d 63 88 90 3c d1 cb af bd
       0.0023374967 0.059938967 0.01764316 -0.08583797
000200 f2 98 a0 bd e8 ca 01 be 1e 52 95 bd ab 7e 59 3d
       -0.07841672 -0.12675059 -0.07291053 0.053099316
000210 e0 42 f4 bd 55 6e 2d bd c5 b4 cb 3d 06 a9 10 bd
       -0.11926818 -0.04234155 0.099465884 -0.035317443
000220 03 bd e1 3c 8c 79 cd bc 48 83 a0 3c f2 b1 e8 bc
       0.027555948 -0.025082372 0.01959385 -0.028405163
000230 cc 9f 0b 3c b3 88 83 3d 60 31 8b 3d 84 08 b6 bc
       0.008521985 0.06422558 0.06796527 -0.022220857
000240 9c 00 8a bd 7c f8 44 3c f0 ee b3 bd 17 d0 44 3e
       -0.067383975 0.012022134 -0.08785808 0.19220005
000250 fb 77 de bc 8c 2d 99 3d bc a1 45 bd 44 c2 db bd
       -0.02715682 0.074793905 -0.048249945 -0.107304126
000260 39 83 ec bd dd c8 85 bd e4 c5 bf 3c 34 1d 07 bc
       -0.11548466 -0.06532452 0.023409791 -0.008246709
000270 04 e1 48 3d 35 01 da bd 43 80 01 bd 53 4d 3d 3d
       0.049042717 -0.106447615 -0.03161646 0.04621632
000280 3f b2 ec 3c eb 83 ae 3c f0 b1 f1 bd a0 02 ca bd
       0.028893588 0.021303138 -0.11801517 -0.09863782
000290 4b e9 4b bd 51 67 9c 3d 36 f9 f7 3c 5d 73 16 3e
       -0.049783032 0.076368935 0.0302702 0.14692445
0002a0 e8 52 8f 3c d6 20 b7 bc fc bb db 3d 76 91 b3 3d
       0.017495587 -0.022354525 0.107292145 0.08767979
0002b0 04 5b 25 3d 4c f2 94 3b 63 05 5d 3d a3 65 f2 3c
       0.040370002 0.0045454856 0.053960215 0.02958948
0002c0 e2 33 cb 3d 42 02 83 bd 14 b8 33 3d 76 ca 64 3d
       0.09922005 -0.06396915 0.043876722 0.055857144
0002d0 50 c3 92 3c bb be bc 3c c4 0d a1 3e 5c 4e 81 bc
       0.017915398 0.023040166 0.31455815 -0.015784435
0002e0 7d 9a a4 bb fd e9 62 3d 51 36 1e be 82 34 79 bd
       -0.0050232993 0.05539893 -0.15450408 -0.06084109
0002f0 a5 3d 03 bd ef 35 9a 3d c7 d3 a4 3d 89 67 ba 3d
       -0.03204121 0.07529818 0.08048206 0.09101779
000300 df 70 22 3c 8f 1e 54 bd 54 75 aa bc 2e f4 2c bd
       0.009914606 -0.051786955 -0.0208079 -0.042225055
000310 de 9e 27 3d 8a 37 63 bd fa eb f5 3b 2e db e4 3d
       0.040922992 -0.055472888 0.0075049372 0.11174618
000320 6a d6 ce 3d e0 48 9a 3d 51 d4 5a bd 88 c0 86 3c
       0.1009949 0.07533431 -0.053425137 0.016449228
000330 fd de 0a b9 3b 26 91 bd a4 34 05 bd 04 bb 18 bb
       -0.00013243775 -0.0708737 -0.032520905 -0.002330483
000340 6e 96 a7 3d 9b d2 45 3d 5a 22 14 3d 58 f3 80 3d
       0.08182989 0.048296552 0.036165573 0.06296414
000350 f0 6d 9f 3d 77 96 ec 3d cd 94 35 3e bb a7 5a 3e
       0.07784641 0.115521364 0.17732544 0.21353047
000360 57 ea dd 3d 51 2a d5 3d 33 4f 71 3d 32 55 07 3e
       0.108357124 0.10408462 0.05891342 0.13216093
000370 39 3a af 3d d2 8b e5 3d 54 c0 2a 3d 4a 26 bc bd
       0.08556027 0.11208309 0.041687325 -0.091869906
000380 f0 88 b2 3d 0b 1e e2 bc 90 34 ca 3d e9 c7 a7 3d
       0.08717525 -0.027602216 0.09873307 0.08192427
000390 4a 3c 62 be 55 96 b2 bd 36 27 d1 bb d2 54 08 be
       -0.22093311 -0.0872008 -0.006382848 -0.13313606
0003a0 8f 0f a1 bc b3 1f 4a bd c7 c9 b3 3e f0 ad 8a 3e
       -0.01966074 -0.049346637 0.3511488 0.2708583
0003b0 a8 3f 9a 3e d6 4d ee bc 30 9f c5 3b 02 fd fa bc
       0.3012669 -0.02908985 0.0060309395 -0.030638222
0003c0 65 73 7a 3d fc a7 29 3c 8d 9d d7 3c b3 2f 8c 3d
       0.061145205 0.010354992 0.026320243 0.068450354
0003d0 9f 9c 6d 3e 8c 6c 42 3e 3a e0 8b b9 84 36 bd 3d
       0.23204277 0.1898672 -0.00026679208 0.09238914
0003e0 1d 3d 0f 3e ea a5 98 3d b7 ca ee 3b 80 67 aa 3d
       0.13988157 0.074535206 0.007287349 0.08320522
0003f0 50 a3 21 3b b8 3f 21 bd ba 4f 80 3b e7 63 39 3d
       0.0024663992 -0.039367408 0.003915754 0.04526129

conv.2.bias f4 [64]
000000 af 23 d4 bb c2 20 76 3d 2d e2 6b 3e f6 03 ac 3d
       -0.0064739804 0.060089834 0.23035498 0.08399193
000010 de 7f f8 3c 5a 49 37 3e 81 d0 6e 3d 14 78 3a 3e
       0.03033441 0.17899075 0.058304314 0.18209869
000020 ea 4f 0d 3e 8c 08 a0 bd 8d f6 3a 3e fa 2f 27 3e
       0.13800016 -0.0781413 0.18258114 0.16326895
000030 4a 3a be 3d 13 70 6b 3e 8d c8 f5 bd 93 54 61 bc
       0.092884615 0.22991972 -0.12001143 -0.013753074
000040 ac be db 3d d4 bc 58 3d e6 0c 2f 3e fa c6 2d 3d
       0.10729727 0.052914456 0.17094764 0.042426087
000050 5c fb 56 3d ba e8 c9 3c fe 78 5a bd ef c8 8f bd
       0.05248581 0.024647105 -0.053338043 -0.07020747
000060 63 95 09 bd 4c af 51 bd 95 7e 80 3d df 37 b2 3d
       -0.033589732 -0.051192567 0.062741436 0.08702063
000070 e2 7f ed 3d 0b 2c d1 3d 97 1b d5 bd 41 d0 fe 3d
       0.11596657 0.10213479 -0.10405653 0.12442065
000080 10 ce 81 3d 16 15 3d 3e 3b 3c 93 bd c5 aa c8 3d
       0.063381314 0.18465075 -0.071892224 0.09798197
000090 2a 3b d2 3c 58 00 6d 3d 1f f2 49 3e 63 52 76 3e
       0.025662977 0.057861656 0.19721268 0.24054866
0000a0 06 6e 4e 3d 8a 2a 54 3d d2 90 e6 bd d2 ac 0b 3e
       0.050397895 0.05179838 -0.11258091 0.13640144
0000b0 43 8b ec bd 5d 0f 65 3d af 3d 25 3d 57 2c 81 3a
       -0.115499996 0.055922855 0.04034203 0.0009855133
0000c0 0b 03 29 3e 96 0f 35 3e 42 6c 0d be b7 fe 41 3c
       0.16505067 0.17681727 -0.13810828 0.011840514
0000d0 32 13 8c 3e 8a be 2f 3e 49 29 1f 3e d7 4d 80 bc
       0.27358395 0.17162529 0.15543093 -0.015662117
0000e0 78 9b 42 3d bf 74 14 3e 48 f3 ff 3c 87 df 98 3d
       0.047511548 0.1449766 0.031243935 0.074645095
0000f0 0f eb 90 3d 8b 9f de 3d 8c 5c b6 bd ad a3 4e 3e
       0.07076084 0.10870274 -0.08904371 0.20179625

fc.1.weight f4 [1, 64]
000000 99 03 6c bd 3f a3 f3 bd e3 b5 db 3c 3e d0 cc bc
       -0.05762062 -0.11896371 0.026820129 -0.025001641
000010 96 36 01 3e 73 bf 2b 3d 27 a3 71 3d 82 7c 22 3e
       0.12618479 0.041930627 0.058993485 0.15867808
000020 2d aa 31 3e 0c 65 64 bd 8d bc 39 3d c7 b4 89 3d
       0.17350073 -0.05576043 0.04534583 0.06723934
000030 00 fa e5 bd bd 62 06 3d 87 a8 1a bc 2f 15 f5 bd
       -0.11229324 0.032809008 -0.009439594 -0.11966931
000040 88 de b3 3c a0 fb 97 bd fa 94 12 3e da 62 f7 bd
       0.021956697 -0.074210405 0.14314643 -0.12079401
000050 1a f2 30 be fb cb ba 3c d0 df 65 be 93 29 1b bd
       -0.17279854 0.022802344 -0.22448659 -0.037881445
000060 f4 0f a4 3d d7 d9 a7 3d 45 fe 9c 3d 56 a1 81 3d
       0.08010855 0.081958465 0.076656856 0.063296005
000070 6a 05 eb 3d 7a ef fe 3c b7 1c 06 bc 78 53 b8 3d
       0.11475642 0.03112005 -0.008185557 0.090002954
000080 12 40 97 bd b7 79 05 3e 96 bd 70 bd bb b9 ee 3d
       -0.07385267 0.13034712 -0.058774553 0.11656519
000090 57 93 1b 3e a7 47 a0 bd f0 c0 08 3e 63 44 d9 3c
       0.15192924 -0.078261666 0.1335485 0.026521867
0000a0 72 22 76 3d 51 b6 91 be 6e bc 8f bd 58 7f 08 3e
       0.060091443 -0.2845941 -0.07018362 0.13329828
0000b0 91 35 d1 be 90 ef 20 bc c7 39 81 bd eb 96 d9 bc
       -0.4086118 -0.009822741 -0.06309848 -0.026561221
0000c0 9c 88 17 3e 8d e7 fb 3d b6 6d f0 bd ae 9f 46 bd
       0.14798206 0.12300024 -0.11739676 -0.048492126
0000d0 41 7b 72 3e d9 b2 1b 3e d8 08 61 3e 08 33 cc 3c
       0.2367983 0.15204944 0.2197603 0.024926677
0000e0 c7 b0 08 3e 5e fc 41 be fc 30 07 3e 94 d6 57 bc
       0.13348685 -0.18943927 0.1320228 -0.013173718
0000f0 36 ae 41 3d 84 8d dd 3d e6 28 f4 3d 20 b9 ac 3d
       0.04728528 0.108180076 0.11921863 0.08433747
