models/forecast_conv1d_tuned.pt (torch, 29757 bytes, 5 tensors)

conv.0.weight f4 [32, 3, 3]
000000 f6 e5 01 be 28 62 fd bd 6c 3e 89 3e 0b 09 d7 3d
       -0.1268538 -0.123722374 0.26805437 0.10499772
000010 6d f7 7e 3e 0d e2 86 be 70 2d b7 bd ee 44 2c be
       0.24899073 -0.26344338 -0.089442134 -0.1682317
000020 90 a0 4e be cb 8a 9f 3e 6a d8 2c be 1f 05 3b be
       -0.20178437 0.31160578 -0.1687943 -0.18263672
000030 a2 c9 7f 3e 8c 24 93 3e a3 80 ba 3e 79 12 97 3e
       0.2497926 0.2873882 0.36426267 0.2950628
000040 17 6b a2 3e e8 e2 15 bd 04 ad 39 3e 68 8d 22 3d
       0.31722328 -0.036593348 0.18132406 0.039685637
000050 9d c4 9d 3c 75 66 76 be e8 fa 8b 3e 9a 48 a1 3e
       0.019258792 -0.24062522 0.27339864 0.31500703
000060 88 26 2e be be 4a 60 be 6b 14 80 be 4f a4 6f be
       -0.17006886 -0.21903512 -0.25015578 -0.23402523
000070 c7 d0 6c 3e b8 36 af bc 3c 88 8c be 5a 95 a1 3e
       0.23126517 -0.021388397 -0.2744769 0.3155926
000080 32 11 c1 3d d4 a1 ff 3d c2 08 45 3e 9c f5 91 bd
       0.09427108 0.12482038 0.19241622 -0.071269244
000090 d4 7a 3a be 87 91 50 3e c2 2c 70 bd c2 e5 a6 3e
       -0.18210918 0.20368014 -0.058636434 0.32597166
0000a0 80 96 c7 be cb 3b 95 3c 00 3e 25 be 20 0b 33 bc
       -0.3898201 0.018216988 -0.16136932 -0.010927945
0000b0 04 42 cb 3d cb f0 60 be ea 77 92 be 4c 73 87 be
       0.09924701 -0.21966855 -0.28607112 -0.26455152
0000c0 f9 e7 70 3e 32 99 e7 3e a3 ab e0 bd 9a 83 23 3e
       0.2352599 0.45234066 -0.10970237 0.15968171
0000d0 a0 45 94 be 8e 4b 14 be e0 03 6c be b8 cd 73 bd
       -0.2895937 -0.14481947 -0.23048353 -0.05952236
0000e0 8a e3 e4 be 58 d3 ab be 2e 5f 9f bc 7c 99 fe 3d
       -0.4470485 -0.3355968 -0.019454565 0.124316186
0000f0 e0 fb 68 3c 82 cd 62 3e 4a 40 1d 3e f5 96 e3 bc
       0.014220208 0.22148708 0.15356556 -0.027781943
000100 71 c5 95 bc a2 09 5a be 66 9e 7f 3e e5 cb 39 3e
       -0.018282624 -0.21292737 0.24962768 0.18144186
000110 1a 97 3b be c7 d4 97 3e 00 a9 e5 3b dd bd 98 3e
       -0.1831936 0.29654524 0.0070086718 0.29832354
000120 33 4d 68 3c e2 2b 42 3e 38 1c 3b 3e cc ab 98 3e
       0.014178562 0.18962052 0.18272483 0.2981857
000130 d8 95 11 3e ff 6b 0c be 32 24 95 be 25 dd 85 3e
       0.14217317 -0.13713072 -0.29129177 0.26145282
000140 60 27 3e bd e7 92 35 3e 19 83 8f 3e 54 ed d5 3d
       -0.04642427 0.1773182 0.28029707 0.10445657
000150 8c 12 e8 3e 8c 0a 01 3f 1a 4f ea bd 31 d1 85 3e
       0.4532665 0.5040672 -0.11440869 0.26136163
000160 9e 7b 86 be 57 c7 98 3e 59 69 18 be f6 b4 10 3e
       -0.26266187 0.29839584 -0.14883937 0.14131531
000170 64 e9 2c bc 53 ce 80 3e 07 95 e0 3e 4e 5b 8a 3e
       -0.010553692 0.25157413 0.438637 0.27022785
000180 d3 28 a2 be 2b 96 35 be 1c d5 e3 3d bc 74 84 be
       -0.3167177 -0.17733066 0.11124632 -0.2587031
000190 25 09 17 3c 7a d9 78 3e 83 88 35 be 94 8f 23 bd
       0.009218489 0.2430171 -0.17727856 -0.03993185
0001a0 55 8c 9a bd ae a3 1e 3e 0a 4c 99 be c6 08 c0 bd
       -0.075462975 0.15492126 -0.29940826 -0.093766734
0001b0 b2 0f 66 be 0c c3 1b 3e f4 d7 6e be 59 35 69 bd
       -0.22466925 0.15211123 -0.23324567 -0.056935642
0001c0 f8 d9 a5 3e b3 26 9c be 74 9f 87 be 0b 33 68 be
       0.3239286 -0.30498275 -0.2648884 -0.22675721
0001d0 46 26 39 3e 75 51 34 bc 48 b7 2d be 2a ca 85 be
       0.18081006 -0.011005749 -0.16964447 -0.261308
0001e0 ea 83 8a 3e 0d 44 ce bd d8 36 dd 3e 79 e4 8f 3e
       0.27053767 -0.100715734 0.43205905 0.28103998
0001f0 eb 7a 7e be b8 66 53 3d ff 37 4c 3e c5 5a 28 3d
       -0.24851577 0.051611632 0.19943236 0.04110219
000200 2a 03 6f be c3 48 63 bd 9b a3 4f be ff 87 a1 3e
       -0.2334105 -0.055489313 -0.20277254 0.3154907
000210 94 07 a4 3d b2 fe 43 3e bc a6 e9 bd d1 38 00 be
       0.08009258 0.19140127 -0.11408755 -0.12521674
000220 8f e7 59 3e 85 8f 92 be 05 ab 4d be ce 7e 56 be
       0.21279739 -0.28625122 -0.2008477 -0.2094681
000230 94 76 8e 3e 80 1a b9 bd 7b c5 6b be c0 46 ef bc
       0.27824843 -0.090382576 -0.23024552 -0.02920854
000240 aa 72 57 3e 9b 99 91 3e 82 ca 6e bd df 07 2a be
       0.21039835 0.28437504 -0.058298595 -0.16604565
000250 59 29 1e bf e4 fd e1 be db e2 a0 3e f8 7f 50 bd
       -0.6178184 -0.44139016 0.31423077 -0.05090329
000260 26 83 44 be f6 49 67 bd dd 52 7b bd 97 e7 88 3e
       -0.19190654 -0.05646702 -0.06135832 0.2673919
000270 85 58 60 bd 48 c4 2a 3e 36 72 49 3e 60 a6 7f bc
       -0.05477192 0.16676438 0.19672474 -0.015603632
000280 00 e9 bc 3d ae fc 69 be 46 2e 09 be 24 b9 95 be
       0.09224129 -0.22850296 -0.13396558 -0.29242814
000290 f9 49 fa be 08 fc c5 be 08 52 47 bc b4 61 bb 3d
       -0.48884562 -0.38668847 -0.012165554 0.09149495
0002a0 52 c5 51 3e 9e cf 85 be 94 3e 88 3d bc f9 2f 3e
       0.20485428 -0.26134962 0.06652561 0.1718511
0002b0 f7 77 8e be cc a0 ac 3d a6 ee 99 be 13 9a 68 ba
       -0.278259 0.08429107 -0.30064887 -0.00088730565
0002c0 65 a5 8b 3e db 00 01 be 2b 96 39 be 48 ac 81 be
       0.27274624 -0.12597983 -0.18123691 -0.25326753
0002d0 ca b5 9d 3e cb 9c 27 be 16 6b 17 be 10 f0 36 3c
       0.30802757 -0.16368406 -0.14786944 0.011165634
0002e0 99 48 32 3e 4b 4f 2f be 6b 34 86 be ae ea 26 3e
       0.17410506 -0.17120092 -0.26211867 0.1630046
0002f0 4e 31 61 3e 32 78 82 3e 0f e6 51 3e e9 b0 28 be
       0.21991464 0.25482327 0.20497917 -0.16473736
000300 b0 5b 93 be da 55 06 be f8 41 37 bd bf 9a 9b 3e
       -0.2878089 -0.13118687 -0.044740647 0.303915
000310 c0 77 c1 bd ac 24 83 be 6b df 0c 3e 7f 45 10 be
       -0.094466686 -0.25613916 0.13757102 -0.1408901
000320 b1 d6 0f bd a1 b6 5a be 18 62 e6 3e db b1 dc 3e
       -0.035116855 -0.2135873 0.44996715 0.43104443
000330 a8 c5 3e be f4 cf b9 3d 6c 03 bf bd 09 99 84 3e
       -0.18630087 0.09072867 -0.093268245 0.25898007
000340 96 64 ca 3d 3c 00 9b bd 50 37 80 3e 29 7c 99 be
       0.098824665 -0.07568404 0.250422 -0.2997754
000350 24 3d 13 bc a0 dc 14 bd 5a 82 7f 3e 80 b8 47 be
       -0.008986745 -0.036343217 0.24952069 -0.19503975
000360 ad 00 0b be 64 0c 2b 3e b4 0b 8b be f3 cf 36 be
       -0.13574477 0.16703945 -0.27157366 -0.17852764
000370 b3 37 98 3e 19 07 e8 bd 9a a2 38 3e 10 5c e8 3d
       0.29729995 -0.11329479 0.18030778 0.113456845
000380 5a 5a 1a 3e 0d 02 0b bd c5 64 84 3e 3b c1 59 3e
       0.15073529 -0.033937503 0.2585813 0.21265118
000390 21 5f fa 3e 66 71 9f 3e 89 53 41 be 52 d5 6d 3e
       0.48900703 0.31141204 -0.18879522 0.23225906
0003a0 be 31 04 be c8 1d a9 be 21 77 e3 be 88 3e 0f 3e
       -0.129096 -0.33030534 -0.44426826 0.13988698
0003b0 22 75 a5 bd 2b 66 3a 3d 1e fc 90 be ff a7 a7 3c
       -0.08078982 0.04550759 -0.2831735 0.020465849
0003c0 7a 0c 74 3e 39 da 81 3e 8b 26 7e be 7f 79 a8 be
       0.23832884 0.25361803 -0.2481939 -0.32905194
0003d0 35 7a a8 bd e9 92 13 be 23 30 86 be 4e 4c 10 3e
       -0.08226434 -0.1441151 -0.262086 0.14091608
0003e0 70 3d a3 be b0 b1 9c 3d 0d d5 98 3e 90 fb c3 bd
       -0.3188281 0.07651079 0.29850045 -0.09569466
0003f0 c5 0f 6c be d7 63 03 3d d8 9b 4a 3e f4 d8 44 3d
       -0.2305289 0.032077637 0.19786012 0.048058465

conv.0.bias f4 [32]
000000 d1 af 35 be 22 21 44 3e ae ee 86 bd e3 96 1d 3e
       -0.1774285 0.19153264 -0.06588493 0.1538959
000010 f1 7d 65 3e a4 b0 e6 bd 60 49 8e be fd 14 d2 3d
       0.22411324 -0.1126416 -0.27790356 0.102579094
000020 bc b6 a4 be 9a 63 e6 be b3 99 c4 3b aa b3 5c 3d
       -0.32170665 -0.44997865 0.0059997677 0.05388228
000030 4f da 61 be 12 5b 66 be de 01 e5 bc 51 8f 81 3e
       -0.22055934 -0.22495678 -0.027954992 0.25304654
000040 25 19 76 3b 06 7e 03 bf 53 3d 9c bb be 13 0c be
       0.0037551608 -0.5136417 -0.0047680526 -0.13679406
000050 d3 03 77 3c 3e 9a 28 be 81 f0 83 3e 18 b8 39 3e
       0.015076595 -0.16465089 0.25769427 0.18136632
000060 f1 f6 87 ba 8d ea 04 be a1 ed ac be 35 a7 bc bd
       -0.0010373277 -0.12980099 -0.33775046 -0.0921158
000070 c8 b8 90 bd 42 e7 86 3d 27 f8 99 3a 83 8a e1 be
       -0.07066494 0.06587078 0.0011746929 -0.4405099

conv.2.weight f4 [64, 32, 3]
000000 c9 a9 83 bd 01 a5 68 be 01 49 dd ba e8 d7 b3 bd
       -0.06428868 -0.22719194 -0.0016882719 -0.08781415
000010 7f f9 e1 3c b4 f0 89 3d f4 eb 8a 3d 69 48 35 bd
       0.02758479 0.067353636 0.06783286 -0.04425851
000020 e9 48 23 3d c4 7b 48 bc 1f 91 41 bd 98 a5 4d 3d
       0.039864454 -0.012236539 -0.04725754 0.05020675
000030 a5 44 00 be 9d b3 14 3d 36 66 1c 3d 9c 7c c2 3d
       -0.12526186 0.036304105 0.038183413 0.094964236
000040 d6 f6 ac be 86 7f 47 bd 02 5d 4c 3e d9 42 87 3d
       -0.3378207 -0.0487056 0.19957355 0.06604547
000050 cb 6a b6 bd 7c dc 80 bd 6e bf 02 3d 0d 54 e1 3c
       -0.08907088 -0.06292054 0.031920843 0.027505899
000060 70 82 74 3d 81 86 5d 3d 53 36 81 bd c5 db 08 bd
       0.059694707 0.05408335 -0.0630919 -0.033412714
000070 9b bf e9 bd c1 93 81 3d d6 32 f9 bc 62 2c a5 bc
       -0.11413499 0.0632701 -0.030419748 -0.020162765
000080 d2 2f ab 3d 59 0c c6 bd 2a a2 70 bd f7 81 1f 3d
       0.083587304 -0.09670324 -0.0587484 0.038942304
000090 85 6a b0 3c 2e bd ef 3c 91 77 92 bd 79 85 eb bd
       0.021535167 0.029265013 -0.07151712 -0.11500067
0000a0 14 f0 f3 bc 30 a9 9f 3d 33 33 02 be be 0e 4d 3d
       -0.029777564 0.07795942 -0.12714843 0.050062887
0000b0 e8 98 7f bd 6f 99 47 39 0e e2 0f be 2b 5b 3f 3d
       -0.062401682 0.00019035277 -0.14051077 0.046717804
0000c0 13 fd 8f bd 8b 75 cd bd e3 6d 2d bd 85 ca 8c 3d
       -0.07030692 -0.10032185 -0.042341124 0.06874565
0000d0 b5 24 10 bd f8 29 5a 3d 1b a5 8b 3d 53 17 a3 3c
       -0.035191257 0.05326268 0.06818601 0.019908583
0000e0 6a 37 88 bd 95 af 96 bd 46 9f 4b 3d 68 40 ba bc
       -0.066511944 -0.07357708 0.04971244 -0.02273579
0000f0 48 ea d0 3c 3d 7c e7 bd d1 aa 01 3b aa 6a d1 bd
       0.025502339 -0.113029934 0.0019785652 -0.10225423
000100 f6 0f ef bd 8e 30 f1 bd 19 22 3d 3d 26 31 55 bd
       -0.11672966 -0.11776839 0.046175096 -0.052048825
000110 df 1b 96 3c 7e a2 19 3d b7 5f 24 3c fb c8 f8 bd
       0.018323837 0.03750848 0.010032586 -0.12147709
000120 9b 0c 48 3d fb b2 e0 bd 5a 79 fc 3b 77 dc 88 3d
       0.048840147 -0.10971638 0.007704896 0.06682675
000130 f8 03 c0 3c 89 ef 3e bd 71 34 02 3e cb 3d ab be
       0.023439392 -0.046615157 0.12715317 -0.33445582
000140 43 a5 8d bd 78 dc ff 3d 8f 91 3d 3d 7e 6d 85 bd
       -0.06916287 0.12493223 0.046281394 -0.065150246
000150 d7 ff fb 3b 7c e3 32 be 7a 16 94 bd 74 64 74 bd
       0.0076904106 -0.17469591 -0.072308496 -0.059666112
000160 57 50 0d be 85 0a a4 3e ba fb 03 3c 14 c5 d9 bd
       -0.13800178 0.32039276 0.008055622 -0.10633293
000170 13 6b 3b 3c 95 aa b3 bd 25 ff 36 bd 91 66 a7 3d
       0.011439103 -0.0877277 -0.04467692 0.0817386
000180 5e 46 56 3d b4 f2 2e be 68 1c 7d 3d d2 59 d8 bd
       0.0523132 -0.17084771 0.06179467 -0.10564007
000190 9b ba d1 ba df 38 57 bd a4 68 29 bd ab 90 14 bd
       -0.0016001047 -0.05254447 -0.04135956 -0.03627078
0001a0 a0 9c 77 bd d0 6e da bd 62 30 c8 bc b2 0a b4 3d
       -0.060452104 -0.10665667 -0.024437133 0.087911025
0001b0 32 3a fb bd 38 29 7e 3b 29 50 7c 3d 11 41 1b 3c
       -0.12266959 0.0038781893 0.061599884 0.009475962
0001c0 ad d7 17 be 1e 48 60 bb b0 07 91 38 ba 80 a3 bd
       -0.14828368 -0.0034222673 6.915571e-05 -0.07983537
0001d0 9a fe b7 bb be f0 c9 bd 24 dc 3e 3d 06 08 c5 bc
       -0.0056150677 -0.09860371 0.04659666 -0.024051677
0001e0 ff ac ce bd c9 81 f1 3c 72 15 b4 bd ec 17 df 3c
       -0.1009159 0.029480832 -0.08793153 0.027233087
0001f0 bc b1 d6 bd 99 ab 8f 3d 6e 4e 85 bd 33 6a 65 3d
       -0.10483119 0.070151515 -0.065091 0.056009483
000200 75 e5 7b 3d ce 75 ae bd ac 64 e6 3a c8 37 5e 3b
       0.061498124 -0.08518563 0.001757761 0.003390776
000210 f5 fe aa bc 06 1c 0a be ce 24 c3 bd 2f bd 05 3d
       -0.020873526 -0.13487253 -0.09528504 0.032651123
000220 67 84 b0 3d c6 97 91 3d 9e 7c 38 3d a3 c9 27 3b
       0.08619004 0.071090266 0.04504072 0.0025602363
000230 93 0a a2 bc 56 bc 33 bd 2b 81 81 3c d4 33 47 3d
       -0.019780433 -0.043880783 0.015808662 0.04863341
000240 71 f7 63 bd 5e 08 87 bd 1c 37 b5 bd 73 62 61 bd
       -0.0556559 -0.06593393 -0.08848402 -0.05502553
000250 47 e6 3d 3d 60 4f fd ba b1 a2 2d be 28 be 97 3d
       0.046362188 -0.0019326024 -0.16956593 0.07409316
000260 ba a4 da bd 9b 4b 03 be ff c1 ab 3c f0 ad 79 3d
       -0.1067595 -0.1282181 0.020966528 0.060956895
000270 92 7d 53 3d 50 fc b8 bd 52 d5 6c bd e1 9e 60 3c
       0.051633425 -0.090325 -0.057820626 0.013709755
000280 e7 69 e8 bc fd 7f 19 bd ca cc 22 3d fb 92 d2 bd
       -0.02837081 -0.037475575 0.039746083 -0.102819405
000290 7f 34 7c 3d 7e e4 06 3d fd df 42 bd b5 fe 97 bc
       0.0615735 0.03293275 -0.047576893 -0.018554071
0002a0 95 77 71 bc 0c 4c bd bd 0c a1 8f 3d 0a f4 05 3d
       -0.014737983 -0.092430204 0.07013139 0.032703437
0002b0 8a 5d 9b 3c 94 96 aa 3d c4 d8 a2 3d 16 01 21 be
       0.018965501 0.08329502 0.07951501 -0.1572307
0002c0 0b 6d 96 3d e7 66 f2 bd de ea ba 3c f1 06 0f 3c
       0.07345017 -0.11836033 0.022817072 0.008729682
0002d0 c2 9f 76 bc 76 67 65 bd 49 1f 69 3d 9b 01 35 be
       -0.015052738 -0.05600687 0.0569146 -0.17676394
0002e0 84 69 e6 3d 48 47 1e 3d 4f fc 8a 3d 4b 8d a2 bd
       0.11250594 0.038642198 0.06786405 -0.07937106
0002f0 c4 59 18 b9 d2 55 ee bc bb 6b e0 bd 97 ce d0 3d
       -0.0001452929 -0.029093657 -0.10958048 0.10195654
000300 92 2b 69 3d e9 11 2b 3d b5 85 42 3e 01 a8 e8 3d
       0.056926318 0.041765127 0.18996318 0.11360169
000310 36 89 33 3d c1 1e 12 3d 73 a8 e4 3b ce d3 79 3a
       0.043832026 0.03567386 0.0069780885 0.00095301575
000320 7a b9 9e bd 49 85 f6 bc e8 74 0a 3e 12 11 af 3c
       -0.077502206 -0.030092852 0.13521159 0.021370444
000330 fc ee 0b 3e ea b3 02 3e cb 06 b3 bc 02 87 2f 3f
       0.13665384 0.12763944 -0.021853825 0.6856538
000340 d6 8c 1e 3f 0f 6d 30 3f b1 d5 28 be eb 82 65 bd
       0.6193365 0.6891641 -0.16487767 -0.056033056
000350 08 6e 38 be 65 1b 28 be 4a 19 cb bc 9a f0 fc bd
       -0.18010724 -0.164167 -0.024792332 -0.123505786
000360 14 59 a0 3d 03 9b 7d 3d ed c2 ae bd 5d 46 36 bd
       0.0782949 0.06191541 -0.08533273 -0.044500697
000370 4d 80 d0 3d 0a a6 93 3d 48 a7 12 3e 7f f2 18 3e
       0.101807214 0.07209404 0.14321625 0.14936255
000380 d2 d9 64 3e de e7 cb 3d 81 18 5d 3d 8c d9 10 3d
       0.22348717 0.099563345 0.053978447 0.03536372
000390 b7 f8 ce 3b ca c4 89 3c 3d e3 58 bd c1 0f db 3d
       0.00631627 0.01681747 -0.052951086 0.10696364
0003a0 f6 50 2a 3d 92 a0 0c 3e f6 99 49 bd 3b 4d 8a bb
       0.041581117 0.13733128 -0.049219094 -0.0042206324
0003b0 cd 9d d3 3d 3b d0 c8 3d bd 40 df 3d fc 7d 33 3e
       0.103328325 0.09805342 0.1090102 0.17528528
0003c0 68 05 2c 3d ac 18 f7 3c 8e 54 aa 3d a4 31 ee 3c
       0.041997343 0.030163132 0.08316909 0.029076405
0003d0 01 95 fb 3d d8 db 9a 3d 4f dc 36 be f3 7d 03 bc
       0.122842796 0.07561463 -0.17857479 -0.008025634
0003e0 1e c3 19 bc 9b 88 a2 3c 84 4c fd 3d b3 5c 20 3e
       -0.0093848985 0.01984053 0.1236811 0.15660362
0003f0 da a2 9b bb 14 97 fb 3d 5a cd 5a bd 6a 43 41 bd
       -0.004749638 0.12284675 -0.053418495 -0.04718343

conv.2.bias f4 [64]
000000 a1 c5 27 bc 58 4c 78 3c a9 f5 35 bd 09 df 1d bc
       -0.0102399895 0.0151549205 -0.044423733 -0.009635695
000010 42 9a bd bd eb bc e6 bd 44 3f 90 3d 5b fd 60 3c
       -0.09257938 -0.11266502 0.07043317 0.01373228
000020 ab 90 06 bc df a5 31 3d a0 7e aa bc 92 60 74 bd
       -0.0082132025 0.043371078 -0.020812333 -0.05966241
000030 1e aa c3 bd a1 5b b3 bd df 29 0c 3d 34 b0 6d bd
       -0.09553932 -0.08757711 0.03421962 -0.05802937
000040 c4 94 d0 bc d1 03 b1 bc a1 f7 41 bd a2 c0 9b 3d
       -0.025461562 -0.021608265 -0.047355298 0.07605101
000050 e1 62 8f 3d ba b0 fe 3d 4c f2 30 bd 05 9e 12 be
       0.070012815 0.12436052 -0.043199822 -0.14318092
000060 43 07 51 3d d1 13 50 3d f7 f7 98 bd 55 1f bb 3b
       0.051032316 0.05080015 -0.074691705 0.005710522
000070 4d 34 49 bd 97 b3 52 be d7 9f 9f bd 43 ce e1 bd
       -0.049122144 -0.2057632 -0.07794159 -0.110256694
000080 6d 88 85 3b ea bd 06 3e 30 ac cc 3c d1 62 31 be
       0.004075101 0.13158384 0.02498445 -0.17322852
000090 21 bb 21 be 4e 33 be 3c 1e 8e 29 bc fc 22 4d bc
       -0.1579404 0.023217823 -0.010348825 -0.012520548
0000a0 6c a9 3e bd 7a 0a 04 bd 5e b0 c2 3d 6f a2 eb 3b
       -0.046548292 -0.032236554 0.095062956 0.0071909945
0000b0 cf 6e 95 3c 1e 17 95 bd d2 f7 b6 3c 09 20 19 bd
       0.018241314 -0.072798 0.022334967 -0.037384067
0000c0 91 3c 1b be 5a 7d 51 3d b3 32 83 3d 93 56 40 3c
       -0.15159823 0.051144935 0.064061545 0.011739391
0000d0 10 c2 1f be 39 94 be bc 4f 58 fb bd 61 e8 5b be
       -0.15601373 -0.023264037 -0.12272703 -0.21475364
0000e0 f4 59 9b bc 49 95 3e be 02 68 8f 3c dd 41 8b bd
       -0.018963791 -0.18611635 0.01750565 -0.06799672
0000f0 31 8e 13 be 91 90 1a be 42 0e cc bd 6e 67 79 bd
       -0.1440971 -0.1509421 -0.09963657 -0.060889654

fc.1.weight f4 [1, 64]
000000 9d 2d 06 be 81 50 09 be a8 8f 8f 3d 45 e2 c3 bd
       -0.13103338 -0.13409616 0.07009822 -0.09564642
000010 9f 9d 70 3d 0e 3f 96 be 3e f3 4a bd b7 e4 16 3e
       0.05874407 -0.29344982 -0.04954838 0.14735685
000020 d9 b9 6a be 90 58 19 3e 99 eb 2c 3e 9e f7 e0 3d
       -0.22922458 0.1497519 0.16886748 0.10984729
000030 f6 3f 4c be 58 40 ab bd 59 1c bf 3d de 32 99 3d
       -0.19946274 -0.08361882 0.09331579 0.07480405
000040 c1 8d 39 bd 5d 59 41 bf 62 81 16 3e 59 06 c4 bc
       -0.045301203 -0.7552698 0.14697793 -0.023928808
000050 63 96 b5 bd 41 34 aa 3e 14 b9 d0 bc 41 9a 05 bf
       -0.088665746 0.33242992 -0.025478877 -0.521885
000060 3d 76 df 3e a9 34 9e bc 09 55 b6 bd 48 a4 4a be
       0.43644896 -0.01931222 -0.08902938 -0.19789231
000070 ef a2 90 3d 0a ce 36 bf 0a ee 40 bf 7a 14 2e 3e
       0.07062327 -0.7140814 -0.7536322 0.16999999
000080 f8 e7 1f 3e 65 1a 35 3e 45 40 7f be e9 4c ea 3d
       0.15615833 0.1768585 -0.2492686 0.11440451
000090 16 87 71 3d 9c c6 0c 3e e6 2a 95 3d 4d ff bf 3d
       0.05896672 0.13747638 0.07283573 0.09374867
0000a0 55 12 55 bd b3 cf 33 bf b1 c1 09 3e 41 9b 98 3d
       -0.052019436 -0.702388 0.13452794 0.07451487
0000b0 7e 6a 1f 3e 27 bb 36 bd 3b 39 11 3e 0f 30 94 be
       0.15567967 -0.044612076 0.14181988 -0.28942916
0000c0 d6 7f cc 3d 27 93 43 bd b5 86 d2 bd 32 65 0a 3e
       0.0998532 -0.047747757 -0.102795996 0.13515165
0000d0 74 f3 97 be fa 1e 0a 3e 57 57 ef be 19 fc 60 3d
       -0.29677927 0.13488379 -0.46746323 0.05492792
0000e0 ff 22 10 3e a6 1b 39 3d ad 48 ea 3d 12 33 3e 3d
       0.1407585 0.045192383 0.11439643 0.046435423
0000f0 31 2c 46 3e d4 8f f9 3d 58 7b 64 3d 80 ce 19 bc
       0.19352795 0.12185636 0.055781692 -0.009387612
