models/forecast_conv1d.pt (torch, 29685 bytes, 5 tensors)

conv.0.weight f4 [32, 3, 3]
00000000: 85f2 c43e c815 7abe 259a 0fbe eedb 44be
00000010: 0c61 5f3e 1c3a 873d efc0 89be 2bad 3ebe
00000020: 97e6 88be ea63 89be c19e 133e b3c3 1b3d
00000030: 0e49 50be bb9b c2bd f81c 8ebe 6cfa 953d
00000040: 282a 21be 1097 d2bd f477 83be b9ac b5bd
00000050: cc51 f0bd 2522 91be 4890 7f3d def4 773d
00000060: c09f 293d 7810 0b3d 208b 49be d02c cfbd
00000070: a4f7 d1bc e89c d33d 7c7f 063e 0a07 c23e
00000080: cf70 99bd a8e6 6dbe 4074 c7bb 9897 3abd
00000090: 8031 c5bb 70a0 65be a22e d8bc a852 cdbe
000000a0: c937 1b3e df1d 913e 0cf7 aabd c60c dcbd
000000b0: 9e90 393e 8253 633e 1e7b 3a3e 9db2 113e
000000c0: 9c9d 88be 5dd5 613d 0239 4ebe a920 863e
000000d0: 00ca 633a 9ae3 023e dafd 173e d7be 073e
000000e0: 49cc 603e 8e9d e03e a800 743e 23b7 2cbe
000000f0: c6a4 45be 3436 f43d b708 903e 8c33 48be
00000100: 00d8 523e 61e2 46bd e607 9dbe 7338 663e
00000110: a461 8b3c d15e a53e 50a1 153e 56ee fdbd
00000120: 9e84 a5be 34af 813e 80a7 af3d 4b18 113d
00000130: d9a5 483e bd44 343e 1f3e 973e 3cde d23d
00000140: 5f02 8b3e fff9 98bd 2faf 74ba 52cc 8abd
00000150: 3714 6b3e 09a5 5ebe 0eaf 8a3e aa50 533e
00000160: a913 9f3e 004f 1cbd 425d 8fbe a8b8 8cbd
00000170: 9e43 a53e 6b86 463e 3cbe d03e e4d2 2dbd
00000180: 40ee d63b fc01 98bd 8a1c 7e3e f536 1cbe
00000190: 5ade 4f3e 4513 d93b b8c1 9e3e 27a2 763e
000001a0: 61f9 a93e e863 623d e6b9 9cbe 35b9 9a3e
000001b0: d78a 953e df60 2c3d 9f44 0d3e 3982 03bd
000001c0: bd4c af3d 784e e23c 9209 553e f834 48bd
000001d0: a862 3abe 0bb6 b1be 95ca 293d 315f ab3e
000001e0: 3018 92bd 268e bd3c 4426 69be 2c12 db3d
000001f0: 4f1f 81be 8c69 c8bd d520 a43d a0ee 99bd
00000200: c435 a7be 4695 ecbd b29d c9be 93c8 b2be
00000210: a064 50bc f4e6 9cbd 7073 50be 0daa 6ebe
00000220: d661 ae3e 2f59 e3be b46b 6f3e 9833 f9bd
00000230: 6913 b03d b820 053d ba97 503e f87d 2f3d
00000240: 0e2b 90bd 07a9 68be 7a2a 8ebe a3ff 7b3e
00000250: 36ce 01be 7c8a 9e3e 034b 3fbe e812 283e
00000260: cee7 4dbe 8306 293d c784 843e b674 2abe
00000270: 2a90 083e 658c ab3e d2a7 bb3e 74c0 873d
00000280: 3ed6 79be f0e3 d03c 19da b0bd 1b89 2c3e
00000290: 06e7 c9bd ffc5 abbe 2cc6 863e a9e9 f33b
000002a0: b098 96bc 36e1 03be 063e 3a3e f12b 87be
000002b0: e00b 173e 74b1 033e 5873 5b3e fb32 1cbe
000002c0: 227f cdbd 2aa4 3c3e f216 703e 28a5 03bd
000002d0: 2e89 27be ee3f 3cbe 38e2 c33e 91f8 8cbd
000002e0: 2ae1 babe 5667 66be ff98 853e 54ad da3d
000002f0: c40d a9be eb66 803e 59b0 a0bb 23be 8cbe
00000300: 5ba6 94bd c2a6 32be 5eb6 363d ae7e 07be
00000310: 0766 a23e 46b0 cbbd f9c9 babd 82c8 50be
00000320: 4dd9 97be f90a aebe 3a0d 1c3d 648a adbe
00000330: 4c7e 88bd 4081 b0bc 50e3 a93c 101e 58be
00000340: 38cc 063e 275e 65be df64 abbd f849 aa3d
00000350: d057 ffbd 3cfd a0be 0f4f 943e a3c4 9abe
00000360: 8de6 4c3e 5b6e ef3d 5a75 983e a298 6d3e
00000370: fbad 9fbe e535 81be 007b 5f3d 3025 37be
00000380: 169a d4bd 1120 8c3d fd4b a63e 8fc1 8c3d
00000390: 1288 2abd bf08 7ebe 156c a63e 804f 0b3b
000003a0: 7258 9fbe 1d59 9b3e 7476 00be 40a9 b03b
000003b0: 3459 293e caa6 aabc 9689 4b3e 5ed1 06be
000003c0: b085 bd3c 101d c6bd 60c2 01bd 1f9d 8abe
000003d0: 65e3 333e 8f3c 903e 9e6d 973e 8b3a 523e
000003e0: b287 ee3e 5b0d 913e 50fa 203e 78e0 33bd
000003f0: 289a 6dbd 588d a3be d600 21be 02b7 983e
0.38466278 -0.24422371 -0.14023645 -0.19224522 0.21814364 0.0660288 -0.2690501 -0.18620746
-0.26738426 -0.2683404 0.14416029 0.03802843 -0.20340368 -0.095023595 -0.27756476 0.07323155
-0.15738738 -0.10282719 -0.25677454 -0.08870835 -0.117343515 -0.28346363 0.062393457 0.060536258
0.041412115 0.033951253 -0.19681978 -0.10115969 -0.02563078 0.10332662 0.13134569 0.37895995
-0.0749222 -0.2323252 -0.006086856 -0.045554727 -0.0060178638 -0.22424483 -0.026389424 -0.40102124
0.15157999 0.28343102 -0.08347902 -0.10744624 0.18121573 0.22199824 0.18211028 0.14228292
-0.26682746 0.05513512 -0.20138934 0.26196793 0.0008689463 0.12782136 0.1484293 0.13256393
0.21952929 0.43870205 0.23828375 -0.16866736 -0.19301137 0.11924401 0.2813165 -0.19550914
0.2059021 -0.048555735 -0.3067009 0.22482471 0.017014332 0.32298902 0.14612317 -0.123989746
-0.3232774 0.25328982 0.0857687 0.03542356 0.19594516 0.17604347 0.29539582 0.10296294
0.27150247 -0.07469558 -0.0009333966 -0.06777252 0.2295693 -0.21742643 0.2708668 0.2063624
0.31069687 -0.038161278 -0.28000838 -0.06871158 0.3227815 0.19387214 0.40770137 -0.04243745
0.0065591633 -0.074222535 0.24815574 -0.1525534 0.20299664 0.0066246116 0.3100717 0.24085294
0.33198074 0.05527106 -0.3061058 0.30219427 0.2920749 0.04208457 0.13795708 -0.032106612
0.085595585 0.027625307 0.20804432 -0.04887864 -0.18201697 -0.347092 0.041452963 0.33471063
-0.0713352 0.02313907 -0.22768503 0.106968254 -0.252192 -0.097857565 0.08014075 -0.07516217
-0.32658207 -0.11551909 -0.39378124 -0.3491865 -0.012719303 -0.07661238 -0.20356536 -0.23307057
0.34059018 -0.4440398 0.23380929 -0.12168044 0.08597452 0.032501906 0.20370379 0.042844743
-0.07039462 -0.22720729 -0.27766782 0.24609236 -0.1267632 0.3096503 -0.18680958 0.16413462
-0.20107958 0.041265976 0.2588255 -0.16646084 0.13336244 0.3350555 0.36651474 0.066285044
-0.24398133 0.025499314 -0.08635349 0.16849177 -0.09858517 -0.33549497 0.26323068 0.007443626
-0.018383354 -0.1287888 0.18187723 -0.26400712 0.14750624 0.12860662 0.21430719 -0.15253823
-0.10034014 0.18421999 0.23446253 -0.032139927 -0.16360924 -0.18383762 0.3825853 -0.06883348
-0.36499912 -0.22500357 0.2609329 0.10677591 -0.33018315 0.2507852 -0.004903835 -0.27488813
-0.07258292 -0.17446426 0.044607513 -0.13231918 0.31718466 -0.09945731 -0.091205545 -0.20388988
-0.29657975 -0.33992746 0.03809855 -0.33894646 -0.06664714 -0.021546006 0.020738274 -0.21105218
0.13163841 -0.22399198 -0.08368849 0.0831489 -0.12467921 -0.31443202 0.28966567 -0.30228147
0.20009823 0.116909705 0.29777032 0.23202756 -0.31187424 -0.2523643 0.05456066 -0.1788528
-0.10380952 0.06842054 0.3247985 0.06872856 -0.041633673 -0.24808024 0.32504335 0.0021257102
-0.31122166 0.30341426 -0.12545186 0.00539127 0.16537935 -0.020831484 0.19876704 -0.13165805
0.023135036 -0.09673512 -0.03167951 -0.27073 0.17567213 0.28171203 0.2957582 0.20530145
0.46587902 0.28330502 0.15720487 -0.043915242 -0.058008343 -0.31943774 -0.15722975 0.29827124

conv.0.bias f4 [32]
00000000: f863 30bc dc00 2fbe adbf 42be acdc 8f3d
00000010: 2d14 b93d 9ffd 59bd 9d0e 173d 016a 693e
00000020: 9e56 e7bd 7643 e73d 5d93 b03d 3230 87be
00000030: 89ca 46be 810d 47be a2b3 adbc 6d22 f2be
00000040: a5df e5bd ea31 373e 2e5f 5c3e 2796 a9bd
00000050: 2422 80be b6d3 513e 41d3 b5bd e91d bf3d
00000060: 7be6 a3be 67cd 113e 6368 a0be e85c 0d3e
00000070: 58c6 853e bf3a e73c 5819 8b3c db6a 2ebe
-0.010766022 -0.17090172 -0.19018431 0.07024512 0.09037051 -0.053220388 0.03687917 0.22794344
-0.11295818 0.11292164 0.08621857 -0.26403958 -0.19413199 -0.19438745 -0.02120382 -0.4729189
-0.112242974 0.17890134 0.21520683 -0.082805924 -0.25026047 0.20490918 -0.08878184 0.09331877
-0.3201178 0.14238511 -0.3132964 0.13804972 0.26127887 0.028226255 0.016979858 -0.1703295

conv.2.weight f4 [64, 32, 3]
00000000: 17d8 01bd 29dc bd3c 00f7 71bd 4d35 a9bd
00000010: 08d3 96bd fa5d 30bc 8d47 a0bd 96c7 08bd
00000020: e021 933c d34f 8abd a481 e7bc 8958 2bbc
00000030: d6da ce3c 4b10 c6bd 71a0 633d c44c 82bd
00000040: 10dd 083c a45e e3bd 5935 9ebd 8bfe 903d
00000050: 5e7f 343c 44dd debb 206d a7bd 2917 863b
00000060: 545b 12bc 962a e0bd 1206 173c 116f 233d
00000070: c57f a03d 420e febb 579f 9ebd f202 8b3d
00000080: 33aa 993c ccf8 e43c dae7 22bd 5a22 0bbd
00000090: 86df 653d 1f17 92bd 5793 27bd 24e8 a0bc
000000a0: 335f 8abc 1185 5b3c 3d7a 9dbc e664 aabc
000000b0: fca7 36bd 28eb a53d 81e2 22bd ea83 dc3c
000000c0: 7b48 913d c24f 6b3c e6a8 08bd c0c1 16bd
000000d0: b17c 873d 3f32 b8bd aa63 3d3d e65f aabd
000000e0: 0edf eabd 4825 5a3c e354 efbd cac7 d9bd
000000f0: 8e2d 553d c1be 133d 6ba3 7bbd 12c9 233c
00000100: 6d55 dbbd 999b c8bd fa28 d8bd 8b2c c0bd
00000110: 7176 90bd 9216 a0bd 0c67 8e3d 8bba 9fbd
00000120: 94a2 edbc c710 9d3d 80b8 753d 3a4b e3bd
00000130: 7f80 cfbd 1821 773d 18d1 423d 859f 2b3d
00000140: 994b d9bd 0c08 bebb 3b6a cdbd 34e9 a0bc
00000150: 40a8 a53c 0b30 a0bd 06dd ddbd f91a 8ebd
00000160: eedf af3d 8289 d3bc dfdc 993d db87 b5bd
00000170: ad71 c1bd 95dc 33bb 42fe f2bd 1a9e 173d
00000180: 604b 1c3e 8ee1 b73c 2243 373e 0210 503c
00000190: 2697 d5bb 291c a83d 1534 9dbe e8c7 82be
000001a0: b3ec 61be bd50 3b3d efc0 c93d 516d db3d
000001b0: 5d0b 9ebd b13e a0bd 0c74 c5bd 1fb5 4c3d
000001c0: 43ab 93bd 3afd be3d e056 a23d ed88 a13d
000001d0: 1946 e43d 764c 78bd 7848 ef3b 16fe c53d
000001e0: 80b0 863d cbf0 f43d b53c e53d 011f a33d
000001f0: 6d17 4bbc d4a7 8dbd 459b b83d b67c 163e
00000200: 669d 1b3d 29e4 313e 2f99 783d 537f 493e
00000210: 8188 483d f7d6 94bd 116f 13bd c057 803d
00000220: 66d5 583d 4de5 04bd cbd6 9d3d 25fd 253d
00000230: a98f 1c3e 4b4a 593e c598 9d3e 6c4d 3b3e
00000240: 3c2e 45bd 8067 713b 0623 e43c 555b 813d
00000250: 8830 b43d 190d 9fbb 5ce5 d3bc b6e5 dcbb
00000260: 2929 44bd 994b e53d 4cdd bc3d 97bb 1d3d
00000270: 5dfb e03d 6766 093e 8ff2 c03d bfe9 c63d
00000280: a20b 5abd 6f9b 04bd a80f a4bd de32 fcbd
00000290: a352 c1bd 184f 31bd 2ece cf3b 523b 933d
000002a0: 2a65 12bd bd0b 5dbc 9512 633d ec12 2bbd
000002b0: 8698 20bc e981 96bd aecd 8eba 9471 283d
000002c0: 7a14 de3d b7ea 0c3d 03f6 e7bc 8d9d 203d
000002d0: 1a32 ac3d de5a a73d 30f9 52bd 490f 8e3e
000002e0: 8c4d 963d d66a a13d 1cff 01bd ef8d 333c
000002f0: 3b9a b53d 4e49 e53c 48dd 08bc fd1a 2c3d
00000300: 3599 db3d b12c ab3d ec2f 383d f592 03bd
00000310: ec9c f63c 4d04 ec3d 7c78 d2bd 5d11 82be
00000320: 1e71 7cbe 826f 183e 72db d43c 58ec 9a3d
00000330: eb6e babc e57c 35be 93f5 e8bd 4b3f ae3d
00000340: 4865 b93c e93f 353d e34c b5bd e4c1 36bc
00000350: 1de2 dcbc 22dc 6fbd 1dff 113e 3a0f 8cbc
00000360: 283b 243e 246a 173e 48ab 053e bc28 d93d
00000370: bb6e 1dbd 7eb2 39bd 4308 d83c e01c e93c
00000380: 8ac9 143c c54e 993d d079 143e 797b 5c3e
00000390: da96 a6bb 6c66 45bd e313 b23c 2464 c93c
000003a0: f333 21bc 7c08 0d3e 5ecc 273e 9663 263e
000003b0: a7a1 473d 7e08 6c3e 675d 833e 92ce ee3d
000003c0: cf24 093d 798c 713c b699 62be 2ff8 603c
000003d0: 625a a43d 2475 ea3d 32d8 a4bd 9e3f a6bd
000003e0: 93c6 93bd 49b2 0c3e 3b6d f43d a7e8 df3d
000003f0: e76a 3a3e 8163 133e 5c29 5a3e 912b 0b3e
-0.03170022 0.02317627 -0.05907345 -0.082621194 -0.0736447 -0.010764593 -0.07826147 -0.033393465
0.017960489 -0.067535065 -0.02826006 -0.01045812 0.025250833 -0.096710764 0.05557293 -0.06362298
0.008353487 -0.11102036 -0.07725019 0.070798 0.011016695 -0.0068012793 -0.08175111 0.0040921164
-0.008932907 -0.109456226 0.009217756 0.039900843 0.0783687 -0.0077531645 -0.077452354 0.06787671
0.018757915 0.027950667 -0.039771892 -0.033968307 0.05612137 -0.07133316 -0.040912 -0.019641943
-0.016891098 0.013398425 -0.019223327 -0.020800065 -0.044593796 0.08101493 -0.039766792 0.02691837
0.07093903 0.014362277 -0.0333642 -0.03680587 0.0661558 -0.08993959 0.046237625 -0.083190724
-0.114683256 0.013314553 -0.11686113 -0.1063381 0.052045397 0.03607059 -0.061435144 0.009996669
-0.10709653 -0.09795303 -0.10554691 -0.09383496 -0.07053841 -0.07816805 0.069532484 -0.07799252
-0.029008187 0.07669216 0.059990406 -0.11098333 -0.101319306 0.060334295 0.04756269 0.041900177
-0.10610122 -0.005799299 -0.100300275 -0.01964245 0.02022183 -0.078216635 -0.108331725 -0.069387384
0.08587633 -0.025822405 0.07512831 -0.08863803 -0.0944551 -0.002744471 -0.11864902 0.03701601
0.15263128 0.02244642 0.17896703 0.012699129 -0.0065182624 0.08208496 -0.30703798 -0.2554314
-0.2206295 0.045731295 0.09851252 0.1071421 -0.07717011 -0.078244574 -0.09641275 0.049977418
-0.072104 0.09325643 0.07926726 0.07887445 0.111461826 -0.060619794 0.00730234 0.09667604
0.065766335 0.1195999 0.111932196 0.07964898 -0.012395722 -0.06916776 0.0901399 0.14696011
0.037991904 0.17372192 0.060692962 0.19677477 0.048958305 -0.07267564 -0.035994593 0.06266737
0.052937888 -0.03244524 0.07706984 0.04052462 0.15289177 0.21219747 0.30780616 0.18291253
-0.048139796 0.0036835372 0.027848732 0.06316248 0.08798319 -0.0048538563 -0.025866203 -0.006741251
-0.047890816 0.1119606 0.092218965 0.038508978 0.10985444 0.1341797 0.094212644 0.09712552
-0.05323375 -0.032374796 -0.08010799 -0.1231439 -0.0943959 -0.04328832 0.006341717 0.07189049
-0.03574101 -0.013491568 0.055437643 -0.041766092 -0.009801989 -0.07348997 -0.0010895038 0.04112394
0.10843749 0.03440353 -0.02831555 0.039212752 0.084079936 0.081716284 -0.051507175 0.27746037
0.0733901 0.078817055 -0.031737432 0.010959133 0.08867308 0.027989056 -0.008353539 0.042017926
0.10722581 0.083581336 0.044967577 -0.03212257 0.030104123 0.11524258 -0.10276887 -0.25403872
-0.24652526 0.14886287 0.025983546 0.0756461 -0.022757968 -0.17723425 -0.113749646 0.08508166
0.022631302 0.044250403 -0.088525556 -0.011154626 -0.026963288 -0.058559544 0.14257474 -0.017097104
0.16038191 0.14786583 0.1305362 0.106034726 -0.03843568 -0.04533624 0.026371127 0.028456151
0.009081254 0.07485727 0.14499593 0.21531476 -0.005083901 -0.04819338 0.021737998 0.024583884
-0.009839046 0.13772768 0.16386554 0.16248927 0.048738148 0.23050115 0.25657198 0.11660494
0.03348237 0.014742964 -0.22128949 0.013731047 0.08025052 0.11448124 -0.080490485 -0.08117603
-0.072156094 0.13739885 0.119348966 0.10933047 0.18204843 0.14393426 0.2130484 0.13590838

conv.2.bias f4 [64]
00000000: 9e12 42bd c446 c7bd b3fd b3bd 4846 15be
00000010: 1c39 06bd d790 b6bb 5033 69bd f16c 983d
00000020: 4a8e 2d3d 0d6d 90bd 0af7 683c 851d 5abd
00000030: f45d a9bd d875 3cbe 33f3 abbd 3502 35bd
00000040: 564d 2ebd 6399 943c efce 6ebd cd37 2a3d
00000050: ce93 de3a 7a37 40bd dc9e 8abd e46b 9ebc
00000060: fdcf 45ba c567 a4bd d7bc b53d cd99 473d
00000070: c60a 303c 3b7e ca3d d214 2cbe 103a d6bd
00000080: f2cd 96bc d6b2 adbd ed09 8ebd 680d a9bc
00000090: 3ddc 2fbd 1894 1a3e 1013 5f3d af67 b2bd
000000a0: 032a e43c 6d7c adbc 8e5a ca3d 43aa d53d
000000b0: afac afbb 143d 7f3d ab62 17bd 8d8f 43bc
000000c0: 2481 333e 6b2b 1fbd 72ef b7bd ea3d 023e
000000d0: 77a6 c4bd 860d 03bd 4fff ea3c 1efd 49bd
000000e0: 4a1e 173d 6756 eabd c38c 57bd 6cd9 27bd
000000f0: 150a babd e022 7b3d 6b0b f43c e987 f6bc
-0.047381036 -0.09730294 -0.08788624 -0.14577591 -0.032769307 -0.0055714655 -0.0569337 0.07442654
0.042372026 -0.0705205 0.014219055 -0.05325081 -0.08269873 -0.18404329 -0.08395996 -0.044191558
-0.042554222 0.018139547 -0.058302816 0.041557122 0.0016981305 -0.046927907 -0.06768581 -0.019338556
-0.0007545946 -0.08027605 0.08873909 0.04873066 0.010744756 0.09887358 -0.16804817 -0.10460293
-0.01840875 -0.08481376 -0.06935487 -0.020636275 -0.042934645 0.15095556 0.05446154 -0.08711182
0.027852064 -0.021177495 0.09880553 0.104328655 -0.0053611617 0.062314108 -0.03695933 -0.011936081
0.17529732 -0.038859766 -0.089812174 0.12718931 -0.09602063 -0.03199532 0.028686194 -0.049313657
0.03689412 -0.11442261 -0.052624475 -0.040978834 -0.09083954 0.061312556 0.0297906 -0.030094104

fc.1.weight f4 [1, 64]
00000000: 3b41 56bc 486e 963d e4f5 0a3e 2a07 813d
00000010: cd32 ecbe 368a 953d c019 003e 471c 1abe
00000020: dc48 6dbd b42d 9d3d 8ad7 2a3e b3c0 f23d
00000030: 09f9 f43b 0873 493d 362a 863d d481 ce3d
00000040: f1c9 b2bc 62f4 b23d a745 5fbd 8fbe f83d
00000050: 9b01 153e d524 3ebe 9c6e 173e cd58 e2be
00000060: b430 743d 3f5c ea3d c54f f2bd 3af0 c2bd
00000070: 672d 163e 7411 123e b86d 073d 0bad 7ebd
00000080: bd96 d4be 0fda 9c3d 1d3c d6bc 0e59 073e
00000090: eaa1 c5be 4335 e83d d80c 7c3d 827e 233d
000000a0: d71f 0c3e 2308 c93d 3b67 333e ecbd 09bf
000000b0: 45ca 72bd 6284 993d 2ae6 6f3d 95fd 94bd
000000c0: fd8d 1a3e ddb7 643d 31d3 81be 8dcf 36be
000000d0: d817 e13c e501 4f3d bf59 4f3d 2206 7b3d
000000e0: d474 fc3d 5e47 66bc 9f23 2a3d 6315 8cbd
000000f0: c9b2 97bd 2cae e3bc a4cf a83c b1df e63d
-0.013077076 0.07345253 0.13570362 0.063001946 -0.46132508 0.07301752 0.12509823 -0.1504985
-0.057930812 0.07674733 0.16683784 0.11853161 0.0074759764 0.049181968 0.0655102 0.100833565
-0.021824809 0.087380186 -0.054509785 0.12145721 0.14551394 -0.18568738 0.14788288 -0.44208375
0.05961676 0.11443376 -0.11831621 -0.09518476 0.14665757 0.1426447 0.03306362 -0.062176745
-0.41521254 0.07658779 -0.026151711 0.13217565 -0.38600093 0.11338284 0.061535686 0.03991557
0.13684021 0.09816005 0.17519848 -0.5380542 -0.05927493 0.07495953 0.05856911 -0.072749294
0.15093227 0.05583941 -0.2535644 -0.17852612 0.02747719 0.050538916 0.050622698 0.061285146
0.12326971 -0.014055101 0.041537877 -0.06840017 -0.074071474 -0.027793013 0.020606823 0.112731345
